2022-09-26 01:00:56,177 args = Namespace(batch_size=512, epochs=64, learning_rate=0.25, momentum=0.9, weight_decay=0, save='./models', data='/home/sathul/Python/ImageNet2012', label_smooth=0.1, print_freq=1, workers=40)
2022-09-26 01:00:57,495 MobileNetV2(
  (feature): ModuleList(
    (0): conv2d_3x3(
      (fc11): Linear(in_features=1, out_features=32, bias=True)
      (fc12): Linear(in_features=32, out_features=1188, bias=True)
      (first_bn): ModuleList(
        (0): BatchNorm2d(4, eps=1e-05, momentum=0.1, affine=False, track_running_stats=True)
        (1): BatchNorm2d(5, eps=1e-05, momentum=0.1, affine=False, track_running_stats=True)
        (2): BatchNorm2d(7, eps=1e-05, momentum=0.1, affine=False, track_running_stats=True)
        (3): BatchNorm2d(8, eps=1e-05, momentum=0.1, affine=False, track_running_stats=True)
        (4): BatchNorm2d(9, eps=1e-05, momentum=0.1, affine=False, track_running_stats=True)
        (5): BatchNorm2d(11, eps=1e-05, momentum=0.1, affine=False, track_running_stats=True)
        (6): BatchNorm2d(12, eps=1e-05, momentum=0.1, affine=False, track_running_stats=True)
        (7): BatchNorm2d(13, eps=1e-05, momentum=0.1, affine=False, track_running_stats=True)
        (8): BatchNorm2d(14, eps=1e-05, momentum=0.1, affine=False, track_running_stats=True)
        (9): BatchNorm2d(16, eps=1e-05, momentum=0.1, affine=False, track_running_stats=True)
        (10): BatchNorm2d(17, eps=1e-05, momentum=0.1, affine=False, track_running_stats=True)
        (11): BatchNorm2d(18, eps=1e-05, momentum=0.1, affine=False, track_running_stats=True)
        (12): BatchNorm2d(20, eps=1e-05, momentum=0.1, affine=False, track_running_stats=True)
        (13): BatchNorm2d(21, eps=1e-05, momentum=0.1, affine=False, track_running_stats=True)
        (14): BatchNorm2d(22, eps=1e-05, momentum=0.1, affine=False, track_running_stats=True)
        (15): BatchNorm2d(24, eps=1e-05, momentum=0.1, affine=False, track_running_stats=True)
        (16): BatchNorm2d(25, eps=1e-05, momentum=0.1, affine=False, track_running_stats=True)
        (17): BatchNorm2d(26, eps=1e-05, momentum=0.1, affine=False, track_running_stats=True)
        (18): BatchNorm2d(28, eps=1e-05, momentum=0.1, affine=False, track_running_stats=True)
        (19): BatchNorm2d(29, eps=1e-05, momentum=0.1, affine=False, track_running_stats=True)
        (20): BatchNorm2d(30, eps=1e-05, momentum=0.1, affine=False, track_running_stats=True)
        (21): BatchNorm2d(32, eps=1e-05, momentum=0.1, affine=False, track_running_stats=True)
        (22): BatchNorm2d(33, eps=1e-05, momentum=0.1, affine=False, track_running_stats=True)
        (23): BatchNorm2d(34, eps=1e-05, momentum=0.1, affine=False, track_running_stats=True)
        (24): BatchNorm2d(36, eps=1e-05, momentum=0.1, affine=False, track_running_stats=True)
        (25): BatchNorm2d(37, eps=1e-05, momentum=0.1, affine=False, track_running_stats=True)
        (26): BatchNorm2d(38, eps=1e-05, momentum=0.1, affine=False, track_running_stats=True)
        (27): BatchNorm2d(40, eps=1e-05, momentum=0.1, affine=False, track_running_stats=True)
        (28): BatchNorm2d(41, eps=1e-05, momentum=0.1, affine=False, track_running_stats=True)
        (29): BatchNorm2d(42, eps=1e-05, momentum=0.1, affine=False, track_running_stats=True)
        (30): BatchNorm2d(44, eps=1e-05, momentum=0.1, affine=False, track_running_stats=True)
      )
    )
    (1): bottleneck(
      (fc11): Linear(in_features=3, out_features=64, bias=True)
      (fc12): Linear(in_features=64, out_features=1936, bias=True)
      (fc21): Linear(in_features=3, out_features=64, bias=True)
      (fc22): Linear(in_features=64, out_features=396, bias=True)
      (fc31): Linear(in_features=3, out_features=64, bias=True)
      (fc32): Linear(in_features=64, out_features=968, bias=True)
      (bn1): ModuleList(
        (0): BatchNorm2d(4, eps=1e-05, momentum=0.1, affine=False, track_running_stats=True)
        (1): BatchNorm2d(5, eps=1e-05, momentum=0.1, affine=False, track_running_stats=True)
        (2): BatchNorm2d(7, eps=1e-05, momentum=0.1, affine=False, track_running_stats=True)
        (3): BatchNorm2d(8, eps=1e-05, momentum=0.1, affine=False, track_running_stats=True)
        (4): BatchNorm2d(9, eps=1e-05, momentum=0.1, affine=False, track_running_stats=True)
        (5): BatchNorm2d(11, eps=1e-05, momentum=0.1, affine=False, track_running_stats=True)
        (6): BatchNorm2d(12, eps=1e-05, momentum=0.1, affine=False, track_running_stats=True)
        (7): BatchNorm2d(13, eps=1e-05, momentum=0.1, affine=False, track_running_stats=True)
        (8): BatchNorm2d(14, eps=1e-05, momentum=0.1, affine=False, track_running_stats=True)
        (9): BatchNorm2d(16, eps=1e-05, momentum=0.1, affine=False, track_running_stats=True)
        (10): BatchNorm2d(17, eps=1e-05, momentum=0.1, affine=False, track_running_stats=True)
        (11): BatchNorm2d(18, eps=1e-05, momentum=0.1, affine=False, track_running_stats=True)
        (12): BatchNorm2d(20, eps=1e-05, momentum=0.1, affine=False, track_running_stats=True)
        (13): BatchNorm2d(21, eps=1e-05, momentum=0.1, affine=False, track_running_stats=True)
        (14): BatchNorm2d(22, eps=1e-05, momentum=0.1, affine=False, track_running_stats=True)
        (15): BatchNorm2d(24, eps=1e-05, momentum=0.1, affine=False, track_running_stats=True)
        (16): BatchNorm2d(25, eps=1e-05, momentum=0.1, affine=False, track_running_stats=True)
        (17): BatchNorm2d(26, eps=1e-05, momentum=0.1, affine=False, track_running_stats=True)
        (18): BatchNorm2d(28, eps=1e-05, momentum=0.1, affine=False, track_running_stats=True)
        (19): BatchNorm2d(29, eps=1e-05, momentum=0.1, affine=False, track_running_stats=True)
        (20): BatchNorm2d(30, eps=1e-05, momentum=0.1, affine=False, track_running_stats=True)
        (21): BatchNorm2d(32, eps=1e-05, momentum=0.1, affine=False, track_running_stats=True)
        (22): BatchNorm2d(33, eps=1e-05, momentum=0.1, affine=False, track_running_stats=True)
        (23): BatchNorm2d(34, eps=1e-05, momentum=0.1, affine=False, track_running_stats=True)
        (24): BatchNorm2d(36, eps=1e-05, momentum=0.1, affine=False, track_running_stats=True)
        (25): BatchNorm2d(37, eps=1e-05, momentum=0.1, affine=False, track_running_stats=True)
        (26): BatchNorm2d(38, eps=1e-05, momentum=0.1, affine=False, track_running_stats=True)
        (27): BatchNorm2d(40, eps=1e-05, momentum=0.1, affine=False, track_running_stats=True)
        (28): BatchNorm2d(41, eps=1e-05, momentum=0.1, affine=False, track_running_stats=True)
        (29): BatchNorm2d(42, eps=1e-05, momentum=0.1, affine=False, track_running_stats=True)
        (30): BatchNorm2d(44, eps=1e-05, momentum=0.1, affine=False, track_running_stats=True)
      )
      (bn2): ModuleList(
        (0): BatchNorm2d(4, eps=1e-05, momentum=0.1, affine=False, track_running_stats=True)
        (1): BatchNorm2d(5, eps=1e-05, momentum=0.1, affine=False, track_running_stats=True)
        (2): BatchNorm2d(7, eps=1e-05, momentum=0.1, affine=False, track_running_stats=True)
        (3): BatchNorm2d(8, eps=1e-05, momentum=0.1, affine=False, track_running_stats=True)
        (4): BatchNorm2d(9, eps=1e-05, momentum=0.1, affine=False, track_running_stats=True)
        (5): BatchNorm2d(11, eps=1e-05, momentum=0.1, affine=False, track_running_stats=True)
        (6): BatchNorm2d(12, eps=1e-05, momentum=0.1, affine=False, track_running_stats=True)
        (7): BatchNorm2d(13, eps=1e-05, momentum=0.1, affine=False, track_running_stats=True)
        (8): BatchNorm2d(14, eps=1e-05, momentum=0.1, affine=False, track_running_stats=True)
        (9): BatchNorm2d(16, eps=1e-05, momentum=0.1, affine=False, track_running_stats=True)
        (10): BatchNorm2d(17, eps=1e-05, momentum=0.1, affine=False, track_running_stats=True)
        (11): BatchNorm2d(18, eps=1e-05, momentum=0.1, affine=False, track_running_stats=True)
        (12): BatchNorm2d(20, eps=1e-05, momentum=0.1, affine=False, track_running_stats=True)
        (13): BatchNorm2d(21, eps=1e-05, momentum=0.1, affine=False, track_running_stats=True)
        (14): BatchNorm2d(22, eps=1e-05, momentum=0.1, affine=False, track_running_stats=True)
        (15): BatchNorm2d(24, eps=1e-05, momentum=0.1, affine=False, track_running_stats=True)
        (16): BatchNorm2d(25, eps=1e-05, momentum=0.1, affine=False, track_running_stats=True)
        (17): BatchNorm2d(26, eps=1e-05, momentum=0.1, affine=False, track_running_stats=True)
        (18): BatchNorm2d(28, eps=1e-05, momentum=0.1, affine=False, track_running_stats=True)
        (19): BatchNorm2d(29, eps=1e-05, momentum=0.1, affine=False, track_running_stats=True)
        (20): BatchNorm2d(30, eps=1e-05, momentum=0.1, affine=False, track_running_stats=True)
        (21): BatchNorm2d(32, eps=1e-05, momentum=0.1, affine=False, track_running_stats=True)
        (22): BatchNorm2d(33, eps=1e-05, momentum=0.1, affine=False, track_running_stats=True)
        (23): BatchNorm2d(34, eps=1e-05, momentum=0.1, affine=False, track_running_stats=True)
        (24): BatchNorm2d(36, eps=1e-05, momentum=0.1, affine=False, track_running_stats=True)
        (25): BatchNorm2d(37, eps=1e-05, momentum=0.1, affine=False, track_running_stats=True)
        (26): BatchNorm2d(38, eps=1e-05, momentum=0.1, affine=False, track_running_stats=True)
        (27): BatchNorm2d(40, eps=1e-05, momentum=0.1, affine=False, track_running_stats=True)
        (28): BatchNorm2d(41, eps=1e-05, momentum=0.1, affine=False, track_running_stats=True)
        (29): BatchNorm2d(42, eps=1e-05, momentum=0.1, affine=False, track_running_stats=True)
        (30): BatchNorm2d(44, eps=1e-05, momentum=0.1, affine=False, track_running_stats=True)
      )
      (bn3): ModuleList(
        (0): BatchNorm2d(2, eps=1e-05, momentum=0.1, affine=False, track_running_stats=True)
        (1): BatchNorm2d(2, eps=1e-05, momentum=0.1, affine=False, track_running_stats=True)
        (2): BatchNorm2d(3, eps=1e-05, momentum=0.1, affine=False, track_running_stats=True)
        (3): BatchNorm2d(4, eps=1e-05, momentum=0.1, affine=False, track_running_stats=True)
        (4): BatchNorm2d(4, eps=1e-05, momentum=0.1, affine=False, track_running_stats=True)
        (5): BatchNorm2d(5, eps=1e-05, momentum=0.1, affine=False, track_running_stats=True)
        (6): BatchNorm2d(6, eps=1e-05, momentum=0.1, affine=False, track_running_stats=True)
        (7): BatchNorm2d(6, eps=1e-05, momentum=0.1, affine=False, track_running_stats=True)
        (8): BatchNorm2d(7, eps=1e-05, momentum=0.1, affine=False, track_running_stats=True)
        (9): BatchNorm2d(8, eps=1e-05, momentum=0.1, affine=False, track_running_stats=True)
        (10): BatchNorm2d(8, eps=1e-05, momentum=0.1, affine=False, track_running_stats=True)
        (11): BatchNorm2d(9, eps=1e-05, momentum=0.1, affine=False, track_running_stats=True)
        (12): BatchNorm2d(10, eps=1e-05, momentum=0.1, affine=False, track_running_stats=True)
        (13): BatchNorm2d(10, eps=1e-05, momentum=0.1, affine=False, track_running_stats=True)
        (14): BatchNorm2d(11, eps=1e-05, momentum=0.1, affine=False, track_running_stats=True)
        (15): BatchNorm2d(12, eps=1e-05, momentum=0.1, affine=False, track_running_stats=True)
        (16): BatchNorm2d(12, eps=1e-05, momentum=0.1, affine=False, track_running_stats=True)
        (17): BatchNorm2d(13, eps=1e-05, momentum=0.1, affine=False, track_running_stats=True)
        (18): BatchNorm2d(14, eps=1e-05, momentum=0.1, affine=False, track_running_stats=True)
        (19): BatchNorm2d(14, eps=1e-05, momentum=0.1, affine=False, track_running_stats=True)
        (20): BatchNorm2d(15, eps=1e-05, momentum=0.1, affine=False, track_running_stats=True)
        (21): BatchNorm2d(16, eps=1e-05, momentum=0.1, affine=False, track_running_stats=True)
        (22): BatchNorm2d(16, eps=1e-05, momentum=0.1, affine=False, track_running_stats=True)
        (23): BatchNorm2d(17, eps=1e-05, momentum=0.1, affine=False, track_running_stats=True)
        (24): BatchNorm2d(18, eps=1e-05, momentum=0.1, affine=False, track_running_stats=True)
        (25): BatchNorm2d(18, eps=1e-05, momentum=0.1, affine=False, track_running_stats=True)
        (26): BatchNorm2d(19, eps=1e-05, momentum=0.1, affine=False, track_running_stats=True)
        (27): BatchNorm2d(20, eps=1e-05, momentum=0.1, affine=False, track_running_stats=True)
        (28): BatchNorm2d(20, eps=1e-05, momentum=0.1, affine=False, track_running_stats=True)
        (29): BatchNorm2d(21, eps=1e-05, momentum=0.1, affine=False, track_running_stats=True)
        (30): BatchNorm2d(22, eps=1e-05, momentum=0.1, affine=False, track_running_stats=True)
      )
    )
    (2): bottleneck(
      (fc11): Linear(in_features=3, out_features=64, bias=True)
      (fc12): Linear(in_features=64, out_features=2904, bias=True)
      (fc21): Linear(in_features=3, out_features=64, bias=True)
      (fc22): Linear(in_features=64, out_features=1188, bias=True)
      (fc31): Linear(in_features=3, out_features=64, bias=True)
      (fc32): Linear(in_features=64, out_features=4356, bias=True)
      (bn1): ModuleList(
        (0): BatchNorm2d(13, eps=1e-05, momentum=0.1, affine=False, track_running_stats=True)
        (1): BatchNorm2d(17, eps=1e-05, momentum=0.1, affine=False, track_running_stats=True)
        (2): BatchNorm2d(21, eps=1e-05, momentum=0.1, affine=False, track_running_stats=True)
        (3): BatchNorm2d(25, eps=1e-05, momentum=0.1, affine=False, track_running_stats=True)
        (4): BatchNorm2d(29, eps=1e-05, momentum=0.1, affine=False, track_running_stats=True)
        (5): BatchNorm2d(33, eps=1e-05, momentum=0.1, affine=False, track_running_stats=True)
        (6): BatchNorm2d(36, eps=1e-05, momentum=0.1, affine=False, track_running_stats=True)
        (7): BatchNorm2d(40, eps=1e-05, momentum=0.1, affine=False, track_running_stats=True)
        (8): BatchNorm2d(44, eps=1e-05, momentum=0.1, affine=False, track_running_stats=True)
        (9): BatchNorm2d(48, eps=1e-05, momentum=0.1, affine=False, track_running_stats=True)
        (10): BatchNorm2d(52, eps=1e-05, momentum=0.1, affine=False, track_running_stats=True)
        (11): BatchNorm2d(56, eps=1e-05, momentum=0.1, affine=False, track_running_stats=True)
        (12): BatchNorm2d(60, eps=1e-05, momentum=0.1, affine=False, track_running_stats=True)
        (13): BatchNorm2d(64, eps=1e-05, momentum=0.1, affine=False, track_running_stats=True)
        (14): BatchNorm2d(68, eps=1e-05, momentum=0.1, affine=False, track_running_stats=True)
        (15): BatchNorm2d(72, eps=1e-05, momentum=0.1, affine=False, track_running_stats=True)
        (16): BatchNorm2d(76, eps=1e-05, momentum=0.1, affine=False, track_running_stats=True)
        (17): BatchNorm2d(80, eps=1e-05, momentum=0.1, affine=False, track_running_stats=True)
        (18): BatchNorm2d(84, eps=1e-05, momentum=0.1, affine=False, track_running_stats=True)
        (19): BatchNorm2d(88, eps=1e-05, momentum=0.1, affine=False, track_running_stats=True)
        (20): BatchNorm2d(92, eps=1e-05, momentum=0.1, affine=False, track_running_stats=True)
        (21): BatchNorm2d(96, eps=1e-05, momentum=0.1, affine=False, track_running_stats=True)
        (22): BatchNorm2d(100, eps=1e-05, momentum=0.1, affine=False, track_running_stats=True)
        (23): BatchNorm2d(104, eps=1e-05, momentum=0.1, affine=False, track_running_stats=True)
        (24): BatchNorm2d(108, eps=1e-05, momentum=0.1, affine=False, track_running_stats=True)
        (25): BatchNorm2d(112, eps=1e-05, momentum=0.1, affine=False, track_running_stats=True)
        (26): BatchNorm2d(116, eps=1e-05, momentum=0.1, affine=False, track_running_stats=True)
        (27): BatchNorm2d(120, eps=1e-05, momentum=0.1, affine=False, track_running_stats=True)
        (28): BatchNorm2d(124, eps=1e-05, momentum=0.1, affine=False, track_running_stats=True)
        (29): BatchNorm2d(128, eps=1e-05, momentum=0.1, affine=False, track_running_stats=True)
        (30): BatchNorm2d(132, eps=1e-05, momentum=0.1, affine=False, track_running_stats=True)
      )
      (bn2): ModuleList(
        (0): BatchNorm2d(13, eps=1e-05, momentum=0.1, affine=False, track_running_stats=True)
        (1): BatchNorm2d(17, eps=1e-05, momentum=0.1, affine=False, track_running_stats=True)
        (2): BatchNorm2d(21, eps=1e-05, momentum=0.1, affine=False, track_running_stats=True)
        (3): BatchNorm2d(25, eps=1e-05, momentum=0.1, affine=False, track_running_stats=True)
        (4): BatchNorm2d(29, eps=1e-05, momentum=0.1, affine=False, track_running_stats=True)
        (5): BatchNorm2d(33, eps=1e-05, momentum=0.1, affine=False, track_running_stats=True)
        (6): BatchNorm2d(36, eps=1e-05, momentum=0.1, affine=False, track_running_stats=True)
        (7): BatchNorm2d(40, eps=1e-05, momentum=0.1, affine=False, track_running_stats=True)
        (8): BatchNorm2d(44, eps=1e-05, momentum=0.1, affine=False, track_running_stats=True)
        (9): BatchNorm2d(48, eps=1e-05, momentum=0.1, affine=False, track_running_stats=True)
        (10): BatchNorm2d(52, eps=1e-05, momentum=0.1, affine=False, track_running_stats=True)
        (11): BatchNorm2d(56, eps=1e-05, momentum=0.1, affine=False, track_running_stats=True)
        (12): BatchNorm2d(60, eps=1e-05, momentum=0.1, affine=False, track_running_stats=True)
        (13): BatchNorm2d(64, eps=1e-05, momentum=0.1, affine=False, track_running_stats=True)
        (14): BatchNorm2d(68, eps=1e-05, momentum=0.1, affine=False, track_running_stats=True)
        (15): BatchNorm2d(72, eps=1e-05, momentum=0.1, affine=False, track_running_stats=True)
        (16): BatchNorm2d(76, eps=1e-05, momentum=0.1, affine=False, track_running_stats=True)
        (17): BatchNorm2d(80, eps=1e-05, momentum=0.1, affine=False, track_running_stats=True)
        (18): BatchNorm2d(84, eps=1e-05, momentum=0.1, affine=False, track_running_stats=True)
        (19): BatchNorm2d(88, eps=1e-05, momentum=0.1, affine=False, track_running_stats=True)
        (20): BatchNorm2d(92, eps=1e-05, momentum=0.1, affine=False, track_running_stats=True)
        (21): BatchNorm2d(96, eps=1e-05, momentum=0.1, affine=False, track_running_stats=True)
        (22): BatchNorm2d(100, eps=1e-05, momentum=0.1, affine=False, track_running_stats=True)
        (23): BatchNorm2d(104, eps=1e-05, momentum=0.1, affine=False, track_running_stats=True)
        (24): BatchNorm2d(108, eps=1e-05, momentum=0.1, affine=False, track_running_stats=True)
        (25): BatchNorm2d(112, eps=1e-05, momentum=0.1, affine=False, track_running_stats=True)
        (26): BatchNorm2d(116, eps=1e-05, momentum=0.1, affine=False, track_running_stats=True)
        (27): BatchNorm2d(120, eps=1e-05, momentum=0.1, affine=False, track_running_stats=True)
        (28): BatchNorm2d(124, eps=1e-05, momentum=0.1, affine=False, track_running_stats=True)
        (29): BatchNorm2d(128, eps=1e-05, momentum=0.1, affine=False, track_running_stats=True)
        (30): BatchNorm2d(132, eps=1e-05, momentum=0.1, affine=False, track_running_stats=True)
      )
      (bn3): ModuleList(
        (0): BatchNorm2d(3, eps=1e-05, momentum=0.1, affine=False, track_running_stats=True)
        (1): BatchNorm2d(4, eps=1e-05, momentum=0.1, affine=False, track_running_stats=True)
        (2): BatchNorm2d(5, eps=1e-05, momentum=0.1, affine=False, track_running_stats=True)
        (3): BatchNorm2d(6, eps=1e-05, momentum=0.1, affine=False, track_running_stats=True)
        (4): BatchNorm2d(7, eps=1e-05, momentum=0.1, affine=False, track_running_stats=True)
        (5): BatchNorm2d(8, eps=1e-05, momentum=0.1, affine=False, track_running_stats=True)
        (6): BatchNorm2d(9, eps=1e-05, momentum=0.1, affine=False, track_running_stats=True)
        (7): BatchNorm2d(10, eps=1e-05, momentum=0.1, affine=False, track_running_stats=True)
        (8): BatchNorm2d(11, eps=1e-05, momentum=0.1, affine=False, track_running_stats=True)
        (9): BatchNorm2d(12, eps=1e-05, momentum=0.1, affine=False, track_running_stats=True)
        (10): BatchNorm2d(13, eps=1e-05, momentum=0.1, affine=False, track_running_stats=True)
        (11): BatchNorm2d(14, eps=1e-05, momentum=0.1, affine=False, track_running_stats=True)
        (12): BatchNorm2d(15, eps=1e-05, momentum=0.1, affine=False, track_running_stats=True)
        (13): BatchNorm2d(16, eps=1e-05, momentum=0.1, affine=False, track_running_stats=True)
        (14): BatchNorm2d(17, eps=1e-05, momentum=0.1, affine=False, track_running_stats=True)
        (15): BatchNorm2d(18, eps=1e-05, momentum=0.1, affine=False, track_running_stats=True)
        (16): BatchNorm2d(19, eps=1e-05, momentum=0.1, affine=False, track_running_stats=True)
        (17): BatchNorm2d(20, eps=1e-05, momentum=0.1, affine=False, track_running_stats=True)
        (18): BatchNorm2d(21, eps=1e-05, momentum=0.1, affine=False, track_running_stats=True)
        (19): BatchNorm2d(22, eps=1e-05, momentum=0.1, affine=False, track_running_stats=True)
        (20): BatchNorm2d(23, eps=1e-05, momentum=0.1, affine=False, track_running_stats=True)
        (21): BatchNorm2d(24, eps=1e-05, momentum=0.1, affine=False, track_running_stats=True)
        (22): BatchNorm2d(25, eps=1e-05, momentum=0.1, affine=False, track_running_stats=True)
        (23): BatchNorm2d(26, eps=1e-05, momentum=0.1, affine=False, track_running_stats=True)
        (24): BatchNorm2d(27, eps=1e-05, momentum=0.1, affine=False, track_running_stats=True)
        (25): BatchNorm2d(28, eps=1e-05, momentum=0.1, affine=False, track_running_stats=True)
        (26): BatchNorm2d(29, eps=1e-05, momentum=0.1, affine=False, track_running_stats=True)
        (27): BatchNorm2d(30, eps=1e-05, momentum=0.1, affine=False, track_running_stats=True)
        (28): BatchNorm2d(31, eps=1e-05, momentum=0.1, affine=False, track_running_stats=True)
        (29): BatchNorm2d(32, eps=1e-05, momentum=0.1, affine=False, track_running_stats=True)
        (30): BatchNorm2d(33, eps=1e-05, momentum=0.1, affine=False, track_running_stats=True)
      )
    )
    (3): bottleneck(
      (fc11): Linear(in_features=3, out_features=64, bias=True)
      (fc12): Linear(in_features=64, out_features=6534, bias=True)
      (fc21): Linear(in_features=3, out_features=64, bias=True)
      (fc22): Linear(in_features=64, out_features=1782, bias=True)
      (fc31): Linear(in_features=3, out_features=64, bias=True)
      (fc32): Linear(in_features=64, out_features=6534, bias=True)
      (bn1): ModuleList(
        (0): BatchNorm2d(19, eps=1e-05, momentum=0.1, affine=False, track_running_stats=True)
        (1): BatchNorm2d(25, eps=1e-05, momentum=0.1, affine=False, track_running_stats=True)
        (2): BatchNorm2d(31, eps=1e-05, momentum=0.1, affine=False, track_running_stats=True)
        (3): BatchNorm2d(37, eps=1e-05, momentum=0.1, affine=False, track_running_stats=True)
        (4): BatchNorm2d(43, eps=1e-05, momentum=0.1, affine=False, track_running_stats=True)
        (5): BatchNorm2d(49, eps=1e-05, momentum=0.1, affine=False, track_running_stats=True)
        (6): BatchNorm2d(55, eps=1e-05, momentum=0.1, affine=False, track_running_stats=True)
        (7): BatchNorm2d(61, eps=1e-05, momentum=0.1, affine=False, track_running_stats=True)
        (8): BatchNorm2d(67, eps=1e-05, momentum=0.1, affine=False, track_running_stats=True)
        (9): BatchNorm2d(73, eps=1e-05, momentum=0.1, affine=False, track_running_stats=True)
        (10): BatchNorm2d(79, eps=1e-05, momentum=0.1, affine=False, track_running_stats=True)
        (11): BatchNorm2d(85, eps=1e-05, momentum=0.1, affine=False, track_running_stats=True)
        (12): BatchNorm2d(91, eps=1e-05, momentum=0.1, affine=False, track_running_stats=True)
        (13): BatchNorm2d(97, eps=1e-05, momentum=0.1, affine=False, track_running_stats=True)
        (14): BatchNorm2d(102, eps=1e-05, momentum=0.1, affine=False, track_running_stats=True)
        (15): BatchNorm2d(108, eps=1e-05, momentum=0.1, affine=False, track_running_stats=True)
        (16): BatchNorm2d(114, eps=1e-05, momentum=0.1, affine=False, track_running_stats=True)
        (17): BatchNorm2d(120, eps=1e-05, momentum=0.1, affine=False, track_running_stats=True)
        (18): BatchNorm2d(126, eps=1e-05, momentum=0.1, affine=False, track_running_stats=True)
        (19): BatchNorm2d(132, eps=1e-05, momentum=0.1, affine=False, track_running_stats=True)
        (20): BatchNorm2d(138, eps=1e-05, momentum=0.1, affine=False, track_running_stats=True)
        (21): BatchNorm2d(144, eps=1e-05, momentum=0.1, affine=False, track_running_stats=True)
        (22): BatchNorm2d(150, eps=1e-05, momentum=0.1, affine=False, track_running_stats=True)
        (23): BatchNorm2d(156, eps=1e-05, momentum=0.1, affine=False, track_running_stats=True)
        (24): BatchNorm2d(162, eps=1e-05, momentum=0.1, affine=False, track_running_stats=True)
        (25): BatchNorm2d(168, eps=1e-05, momentum=0.1, affine=False, track_running_stats=True)
        (26): BatchNorm2d(174, eps=1e-05, momentum=0.1, affine=False, track_running_stats=True)
        (27): BatchNorm2d(180, eps=1e-05, momentum=0.1, affine=False, track_running_stats=True)
        (28): BatchNorm2d(186, eps=1e-05, momentum=0.1, affine=False, track_running_stats=True)
        (29): BatchNorm2d(192, eps=1e-05, momentum=0.1, affine=False, track_running_stats=True)
        (30): BatchNorm2d(198, eps=1e-05, momentum=0.1, affine=False, track_running_stats=True)
      )
      (bn2): ModuleList(
        (0): BatchNorm2d(19, eps=1e-05, momentum=0.1, affine=False, track_running_stats=True)
        (1): BatchNorm2d(25, eps=1e-05, momentum=0.1, affine=False, track_running_stats=True)
        (2): BatchNorm2d(31, eps=1e-05, momentum=0.1, affine=False, track_running_stats=True)
        (3): BatchNorm2d(37, eps=1e-05, momentum=0.1, affine=False, track_running_stats=True)
        (4): BatchNorm2d(43, eps=1e-05, momentum=0.1, affine=False, track_running_stats=True)
        (5): BatchNorm2d(49, eps=1e-05, momentum=0.1, affine=False, track_running_stats=True)
        (6): BatchNorm2d(55, eps=1e-05, momentum=0.1, affine=False, track_running_stats=True)
        (7): BatchNorm2d(61, eps=1e-05, momentum=0.1, affine=False, track_running_stats=True)
        (8): BatchNorm2d(67, eps=1e-05, momentum=0.1, affine=False, track_running_stats=True)
        (9): BatchNorm2d(73, eps=1e-05, momentum=0.1, affine=False, track_running_stats=True)
        (10): BatchNorm2d(79, eps=1e-05, momentum=0.1, affine=False, track_running_stats=True)
        (11): BatchNorm2d(85, eps=1e-05, momentum=0.1, affine=False, track_running_stats=True)
        (12): BatchNorm2d(91, eps=1e-05, momentum=0.1, affine=False, track_running_stats=True)
        (13): BatchNorm2d(97, eps=1e-05, momentum=0.1, affine=False, track_running_stats=True)
        (14): BatchNorm2d(102, eps=1e-05, momentum=0.1, affine=False, track_running_stats=True)
        (15): BatchNorm2d(108, eps=1e-05, momentum=0.1, affine=False, track_running_stats=True)
        (16): BatchNorm2d(114, eps=1e-05, momentum=0.1, affine=False, track_running_stats=True)
        (17): BatchNorm2d(120, eps=1e-05, momentum=0.1, affine=False, track_running_stats=True)
        (18): BatchNorm2d(126, eps=1e-05, momentum=0.1, affine=False, track_running_stats=True)
        (19): BatchNorm2d(132, eps=1e-05, momentum=0.1, affine=False, track_running_stats=True)
        (20): BatchNorm2d(138, eps=1e-05, momentum=0.1, affine=False, track_running_stats=True)
        (21): BatchNorm2d(144, eps=1e-05, momentum=0.1, affine=False, track_running_stats=True)
        (22): BatchNorm2d(150, eps=1e-05, momentum=0.1, affine=False, track_running_stats=True)
        (23): BatchNorm2d(156, eps=1e-05, momentum=0.1, affine=False, track_running_stats=True)
        (24): BatchNorm2d(162, eps=1e-05, momentum=0.1, affine=False, track_running_stats=True)
        (25): BatchNorm2d(168, eps=1e-05, momentum=0.1, affine=False, track_running_stats=True)
        (26): BatchNorm2d(174, eps=1e-05, momentum=0.1, affine=False, track_running_stats=True)
        (27): BatchNorm2d(180, eps=1e-05, momentum=0.1, affine=False, track_running_stats=True)
        (28): BatchNorm2d(186, eps=1e-05, momentum=0.1, affine=False, track_running_stats=True)
        (29): BatchNorm2d(192, eps=1e-05, momentum=0.1, affine=False, track_running_stats=True)
        (30): BatchNorm2d(198, eps=1e-05, momentum=0.1, affine=False, track_running_stats=True)
      )
      (bn3): ModuleList(
        (0): BatchNorm2d(3, eps=1e-05, momentum=0.1, affine=False, track_running_stats=True)
        (1): BatchNorm2d(4, eps=1e-05, momentum=0.1, affine=False, track_running_stats=True)
        (2): BatchNorm2d(5, eps=1e-05, momentum=0.1, affine=False, track_running_stats=True)
        (3): BatchNorm2d(6, eps=1e-05, momentum=0.1, affine=False, track_running_stats=True)
        (4): BatchNorm2d(7, eps=1e-05, momentum=0.1, affine=False, track_running_stats=True)
        (5): BatchNorm2d(8, eps=1e-05, momentum=0.1, affine=False, track_running_stats=True)
        (6): BatchNorm2d(9, eps=1e-05, momentum=0.1, affine=False, track_running_stats=True)
        (7): BatchNorm2d(10, eps=1e-05, momentum=0.1, affine=False, track_running_stats=True)
        (8): BatchNorm2d(11, eps=1e-05, momentum=0.1, affine=False, track_running_stats=True)
        (9): BatchNorm2d(12, eps=1e-05, momentum=0.1, affine=False, track_running_stats=True)
        (10): BatchNorm2d(13, eps=1e-05, momentum=0.1, affine=False, track_running_stats=True)
        (11): BatchNorm2d(14, eps=1e-05, momentum=0.1, affine=False, track_running_stats=True)
        (12): BatchNorm2d(15, eps=1e-05, momentum=0.1, affine=False, track_running_stats=True)
        (13): BatchNorm2d(16, eps=1e-05, momentum=0.1, affine=False, track_running_stats=True)
        (14): BatchNorm2d(17, eps=1e-05, momentum=0.1, affine=False, track_running_stats=True)
        (15): BatchNorm2d(18, eps=1e-05, momentum=0.1, affine=False, track_running_stats=True)
        (16): BatchNorm2d(19, eps=1e-05, momentum=0.1, affine=False, track_running_stats=True)
        (17): BatchNorm2d(20, eps=1e-05, momentum=0.1, affine=False, track_running_stats=True)
        (18): BatchNorm2d(21, eps=1e-05, momentum=0.1, affine=False, track_running_stats=True)
        (19): BatchNorm2d(22, eps=1e-05, momentum=0.1, affine=False, track_running_stats=True)
        (20): BatchNorm2d(23, eps=1e-05, momentum=0.1, affine=False, track_running_stats=True)
        (21): BatchNorm2d(24, eps=1e-05, momentum=0.1, affine=False, track_running_stats=True)
        (22): BatchNorm2d(25, eps=1e-05, momentum=0.1, affine=False, track_running_stats=True)
        (23): BatchNorm2d(26, eps=1e-05, momentum=0.1, affine=False, track_running_stats=True)
        (24): BatchNorm2d(27, eps=1e-05, momentum=0.1, affine=False, track_running_stats=True)
        (25): BatchNorm2d(28, eps=1e-05, momentum=0.1, affine=False, track_running_stats=True)
        (26): BatchNorm2d(29, eps=1e-05, momentum=0.1, affine=False, track_running_stats=True)
        (27): BatchNorm2d(30, eps=1e-05, momentum=0.1, affine=False, track_running_stats=True)
        (28): BatchNorm2d(31, eps=1e-05, momentum=0.1, affine=False, track_running_stats=True)
        (29): BatchNorm2d(32, eps=1e-05, momentum=0.1, affine=False, track_running_stats=True)
        (30): BatchNorm2d(33, eps=1e-05, momentum=0.1, affine=False, track_running_stats=True)
      )
    )
    (4): bottleneck(
      (fc11): Linear(in_features=3, out_features=64, bias=True)
      (fc12): Linear(in_features=64, out_features=6534, bias=True)
      (fc21): Linear(in_features=3, out_features=64, bias=True)
      (fc22): Linear(in_features=64, out_features=1782, bias=True)
      (fc31): Linear(in_features=3, out_features=64, bias=True)
      (fc32): Linear(in_features=64, out_features=8712, bias=True)
      (bn1): ModuleList(
        (0): BatchNorm2d(19, eps=1e-05, momentum=0.1, affine=False, track_running_stats=True)
        (1): BatchNorm2d(25, eps=1e-05, momentum=0.1, affine=False, track_running_stats=True)
        (2): BatchNorm2d(31, eps=1e-05, momentum=0.1, affine=False, track_running_stats=True)
        (3): BatchNorm2d(37, eps=1e-05, momentum=0.1, affine=False, track_running_stats=True)
        (4): BatchNorm2d(43, eps=1e-05, momentum=0.1, affine=False, track_running_stats=True)
        (5): BatchNorm2d(49, eps=1e-05, momentum=0.1, affine=False, track_running_stats=True)
        (6): BatchNorm2d(55, eps=1e-05, momentum=0.1, affine=False, track_running_stats=True)
        (7): BatchNorm2d(61, eps=1e-05, momentum=0.1, affine=False, track_running_stats=True)
        (8): BatchNorm2d(67, eps=1e-05, momentum=0.1, affine=False, track_running_stats=True)
        (9): BatchNorm2d(73, eps=1e-05, momentum=0.1, affine=False, track_running_stats=True)
        (10): BatchNorm2d(79, eps=1e-05, momentum=0.1, affine=False, track_running_stats=True)
        (11): BatchNorm2d(85, eps=1e-05, momentum=0.1, affine=False, track_running_stats=True)
        (12): BatchNorm2d(91, eps=1e-05, momentum=0.1, affine=False, track_running_stats=True)
        (13): BatchNorm2d(97, eps=1e-05, momentum=0.1, affine=False, track_running_stats=True)
        (14): BatchNorm2d(102, eps=1e-05, momentum=0.1, affine=False, track_running_stats=True)
        (15): BatchNorm2d(108, eps=1e-05, momentum=0.1, affine=False, track_running_stats=True)
        (16): BatchNorm2d(114, eps=1e-05, momentum=0.1, affine=False, track_running_stats=True)
        (17): BatchNorm2d(120, eps=1e-05, momentum=0.1, affine=False, track_running_stats=True)
        (18): BatchNorm2d(126, eps=1e-05, momentum=0.1, affine=False, track_running_stats=True)
        (19): BatchNorm2d(132, eps=1e-05, momentum=0.1, affine=False, track_running_stats=True)
        (20): BatchNorm2d(138, eps=1e-05, momentum=0.1, affine=False, track_running_stats=True)
        (21): BatchNorm2d(144, eps=1e-05, momentum=0.1, affine=False, track_running_stats=True)
        (22): BatchNorm2d(150, eps=1e-05, momentum=0.1, affine=False, track_running_stats=True)
        (23): BatchNorm2d(156, eps=1e-05, momentum=0.1, affine=False, track_running_stats=True)
        (24): BatchNorm2d(162, eps=1e-05, momentum=0.1, affine=False, track_running_stats=True)
        (25): BatchNorm2d(168, eps=1e-05, momentum=0.1, affine=False, track_running_stats=True)
        (26): BatchNorm2d(174, eps=1e-05, momentum=0.1, affine=False, track_running_stats=True)
        (27): BatchNorm2d(180, eps=1e-05, momentum=0.1, affine=False, track_running_stats=True)
        (28): BatchNorm2d(186, eps=1e-05, momentum=0.1, affine=False, track_running_stats=True)
        (29): BatchNorm2d(192, eps=1e-05, momentum=0.1, affine=False, track_running_stats=True)
        (30): BatchNorm2d(198, eps=1e-05, momentum=0.1, affine=False, track_running_stats=True)
      )
      (bn2): ModuleList(
        (0): BatchNorm2d(19, eps=1e-05, momentum=0.1, affine=False, track_running_stats=True)
        (1): BatchNorm2d(25, eps=1e-05, momentum=0.1, affine=False, track_running_stats=True)
        (2): BatchNorm2d(31, eps=1e-05, momentum=0.1, affine=False, track_running_stats=True)
        (3): BatchNorm2d(37, eps=1e-05, momentum=0.1, affine=False, track_running_stats=True)
        (4): BatchNorm2d(43, eps=1e-05, momentum=0.1, affine=False, track_running_stats=True)
        (5): BatchNorm2d(49, eps=1e-05, momentum=0.1, affine=False, track_running_stats=True)
        (6): BatchNorm2d(55, eps=1e-05, momentum=0.1, affine=False, track_running_stats=True)
        (7): BatchNorm2d(61, eps=1e-05, momentum=0.1, affine=False, track_running_stats=True)
        (8): BatchNorm2d(67, eps=1e-05, momentum=0.1, affine=False, track_running_stats=True)
        (9): BatchNorm2d(73, eps=1e-05, momentum=0.1, affine=False, track_running_stats=True)
        (10): BatchNorm2d(79, eps=1e-05, momentum=0.1, affine=False, track_running_stats=True)
        (11): BatchNorm2d(85, eps=1e-05, momentum=0.1, affine=False, track_running_stats=True)
        (12): BatchNorm2d(91, eps=1e-05, momentum=0.1, affine=False, track_running_stats=True)
        (13): BatchNorm2d(97, eps=1e-05, momentum=0.1, affine=False, track_running_stats=True)
        (14): BatchNorm2d(102, eps=1e-05, momentum=0.1, affine=False, track_running_stats=True)
        (15): BatchNorm2d(108, eps=1e-05, momentum=0.1, affine=False, track_running_stats=True)
        (16): BatchNorm2d(114, eps=1e-05, momentum=0.1, affine=False, track_running_stats=True)
        (17): BatchNorm2d(120, eps=1e-05, momentum=0.1, affine=False, track_running_stats=True)
        (18): BatchNorm2d(126, eps=1e-05, momentum=0.1, affine=False, track_running_stats=True)
        (19): BatchNorm2d(132, eps=1e-05, momentum=0.1, affine=False, track_running_stats=True)
        (20): BatchNorm2d(138, eps=1e-05, momentum=0.1, affine=False, track_running_stats=True)
        (21): BatchNorm2d(144, eps=1e-05, momentum=0.1, affine=False, track_running_stats=True)
        (22): BatchNorm2d(150, eps=1e-05, momentum=0.1, affine=False, track_running_stats=True)
        (23): BatchNorm2d(156, eps=1e-05, momentum=0.1, affine=False, track_running_stats=True)
        (24): BatchNorm2d(162, eps=1e-05, momentum=0.1, affine=False, track_running_stats=True)
        (25): BatchNorm2d(168, eps=1e-05, momentum=0.1, affine=False, track_running_stats=True)
        (26): BatchNorm2d(174, eps=1e-05, momentum=0.1, affine=False, track_running_stats=True)
        (27): BatchNorm2d(180, eps=1e-05, momentum=0.1, affine=False, track_running_stats=True)
        (28): BatchNorm2d(186, eps=1e-05, momentum=0.1, affine=False, track_running_stats=True)
        (29): BatchNorm2d(192, eps=1e-05, momentum=0.1, affine=False, track_running_stats=True)
        (30): BatchNorm2d(198, eps=1e-05, momentum=0.1, affine=False, track_running_stats=True)
      )
      (bn3): ModuleList(
        (0): BatchNorm2d(4, eps=1e-05, momentum=0.1, affine=False, track_running_stats=True)
        (1): BatchNorm2d(5, eps=1e-05, momentum=0.1, affine=False, track_running_stats=True)
        (2): BatchNorm2d(7, eps=1e-05, momentum=0.1, affine=False, track_running_stats=True)
        (3): BatchNorm2d(8, eps=1e-05, momentum=0.1, affine=False, track_running_stats=True)
        (4): BatchNorm2d(9, eps=1e-05, momentum=0.1, affine=False, track_running_stats=True)
        (5): BatchNorm2d(11, eps=1e-05, momentum=0.1, affine=False, track_running_stats=True)
        (6): BatchNorm2d(12, eps=1e-05, momentum=0.1, affine=False, track_running_stats=True)
        (7): BatchNorm2d(13, eps=1e-05, momentum=0.1, affine=False, track_running_stats=True)
        (8): BatchNorm2d(14, eps=1e-05, momentum=0.1, affine=False, track_running_stats=True)
        (9): BatchNorm2d(16, eps=1e-05, momentum=0.1, affine=False, track_running_stats=True)
        (10): BatchNorm2d(17, eps=1e-05, momentum=0.1, affine=False, track_running_stats=True)
        (11): BatchNorm2d(18, eps=1e-05, momentum=0.1, affine=False, track_running_stats=True)
        (12): BatchNorm2d(20, eps=1e-05, momentum=0.1, affine=False, track_running_stats=True)
        (13): BatchNorm2d(21, eps=1e-05, momentum=0.1, affine=False, track_running_stats=True)
        (14): BatchNorm2d(22, eps=1e-05, momentum=0.1, affine=False, track_running_stats=True)
        (15): BatchNorm2d(24, eps=1e-05, momentum=0.1, affine=False, track_running_stats=True)
        (16): BatchNorm2d(25, eps=1e-05, momentum=0.1, affine=False, track_running_stats=True)
        (17): BatchNorm2d(26, eps=1e-05, momentum=0.1, affine=False, track_running_stats=True)
        (18): BatchNorm2d(28, eps=1e-05, momentum=0.1, affine=False, track_running_stats=True)
        (19): BatchNorm2d(29, eps=1e-05, momentum=0.1, affine=False, track_running_stats=True)
        (20): BatchNorm2d(30, eps=1e-05, momentum=0.1, affine=False, track_running_stats=True)
        (21): BatchNorm2d(32, eps=1e-05, momentum=0.1, affine=False, track_running_stats=True)
        (22): BatchNorm2d(33, eps=1e-05, momentum=0.1, affine=False, track_running_stats=True)
        (23): BatchNorm2d(34, eps=1e-05, momentum=0.1, affine=False, track_running_stats=True)
        (24): BatchNorm2d(36, eps=1e-05, momentum=0.1, affine=False, track_running_stats=True)
        (25): BatchNorm2d(37, eps=1e-05, momentum=0.1, affine=False, track_running_stats=True)
        (26): BatchNorm2d(38, eps=1e-05, momentum=0.1, affine=False, track_running_stats=True)
        (27): BatchNorm2d(40, eps=1e-05, momentum=0.1, affine=False, track_running_stats=True)
        (28): BatchNorm2d(41, eps=1e-05, momentum=0.1, affine=False, track_running_stats=True)
        (29): BatchNorm2d(42, eps=1e-05, momentum=0.1, affine=False, track_running_stats=True)
        (30): BatchNorm2d(44, eps=1e-05, momentum=0.1, affine=False, track_running_stats=True)
      )
    )
    (5): bottleneck(
      (fc11): Linear(in_features=3, out_features=64, bias=True)
      (fc12): Linear(in_features=64, out_features=11616, bias=True)
      (fc21): Linear(in_features=3, out_features=64, bias=True)
      (fc22): Linear(in_features=64, out_features=2376, bias=True)
      (fc31): Linear(in_features=3, out_features=64, bias=True)
      (fc32): Linear(in_features=64, out_features=11616, bias=True)
      (bn1): ModuleList(
        (0): BatchNorm2d(26, eps=1e-05, momentum=0.1, affine=False, track_running_stats=True)
        (1): BatchNorm2d(34, eps=1e-05, momentum=0.1, affine=False, track_running_stats=True)
        (2): BatchNorm2d(42, eps=1e-05, momentum=0.1, affine=False, track_running_stats=True)
        (3): BatchNorm2d(50, eps=1e-05, momentum=0.1, affine=False, track_running_stats=True)
        (4): BatchNorm2d(58, eps=1e-05, momentum=0.1, affine=False, track_running_stats=True)
        (5): BatchNorm2d(66, eps=1e-05, momentum=0.1, affine=False, track_running_stats=True)
        (6): BatchNorm2d(73, eps=1e-05, momentum=0.1, affine=False, track_running_stats=True)
        (7): BatchNorm2d(81, eps=1e-05, momentum=0.1, affine=False, track_running_stats=True)
        (8): BatchNorm2d(89, eps=1e-05, momentum=0.1, affine=False, track_running_stats=True)
        (9): BatchNorm2d(97, eps=1e-05, momentum=0.1, affine=False, track_running_stats=True)
        (10): BatchNorm2d(105, eps=1e-05, momentum=0.1, affine=False, track_running_stats=True)
        (11): BatchNorm2d(113, eps=1e-05, momentum=0.1, affine=False, track_running_stats=True)
        (12): BatchNorm2d(121, eps=1e-05, momentum=0.1, affine=False, track_running_stats=True)
        (13): BatchNorm2d(129, eps=1e-05, momentum=0.1, affine=False, track_running_stats=True)
        (14): BatchNorm2d(137, eps=1e-05, momentum=0.1, affine=False, track_running_stats=True)
        (15): BatchNorm2d(145, eps=1e-05, momentum=0.1, affine=False, track_running_stats=True)
        (16): BatchNorm2d(153, eps=1e-05, momentum=0.1, affine=False, track_running_stats=True)
        (17): BatchNorm2d(161, eps=1e-05, momentum=0.1, affine=False, track_running_stats=True)
        (18): BatchNorm2d(168, eps=1e-05, momentum=0.1, affine=False, track_running_stats=True)
        (19): BatchNorm2d(176, eps=1e-05, momentum=0.1, affine=False, track_running_stats=True)
        (20): BatchNorm2d(184, eps=1e-05, momentum=0.1, affine=False, track_running_stats=True)
        (21): BatchNorm2d(192, eps=1e-05, momentum=0.1, affine=False, track_running_stats=True)
        (22): BatchNorm2d(200, eps=1e-05, momentum=0.1, affine=False, track_running_stats=True)
        (23): BatchNorm2d(208, eps=1e-05, momentum=0.1, affine=False, track_running_stats=True)
        (24): BatchNorm2d(216, eps=1e-05, momentum=0.1, affine=False, track_running_stats=True)
        (25): BatchNorm2d(224, eps=1e-05, momentum=0.1, affine=False, track_running_stats=True)
        (26): BatchNorm2d(232, eps=1e-05, momentum=0.1, affine=False, track_running_stats=True)
        (27): BatchNorm2d(240, eps=1e-05, momentum=0.1, affine=False, track_running_stats=True)
        (28): BatchNorm2d(248, eps=1e-05, momentum=0.1, affine=False, track_running_stats=True)
        (29): BatchNorm2d(256, eps=1e-05, momentum=0.1, affine=False, track_running_stats=True)
        (30): BatchNorm2d(264, eps=1e-05, momentum=0.1, affine=False, track_running_stats=True)
      )
      (bn2): ModuleList(
        (0): BatchNorm2d(26, eps=1e-05, momentum=0.1, affine=False, track_running_stats=True)
        (1): BatchNorm2d(34, eps=1e-05, momentum=0.1, affine=False, track_running_stats=True)
        (2): BatchNorm2d(42, eps=1e-05, momentum=0.1, affine=False, track_running_stats=True)
        (3): BatchNorm2d(50, eps=1e-05, momentum=0.1, affine=False, track_running_stats=True)
        (4): BatchNorm2d(58, eps=1e-05, momentum=0.1, affine=False, track_running_stats=True)
        (5): BatchNorm2d(66, eps=1e-05, momentum=0.1, affine=False, track_running_stats=True)
        (6): BatchNorm2d(73, eps=1e-05, momentum=0.1, affine=False, track_running_stats=True)
        (7): BatchNorm2d(81, eps=1e-05, momentum=0.1, affine=False, track_running_stats=True)
        (8): BatchNorm2d(89, eps=1e-05, momentum=0.1, affine=False, track_running_stats=True)
        (9): BatchNorm2d(97, eps=1e-05, momentum=0.1, affine=False, track_running_stats=True)
        (10): BatchNorm2d(105, eps=1e-05, momentum=0.1, affine=False, track_running_stats=True)
        (11): BatchNorm2d(113, eps=1e-05, momentum=0.1, affine=False, track_running_stats=True)
        (12): BatchNorm2d(121, eps=1e-05, momentum=0.1, affine=False, track_running_stats=True)
        (13): BatchNorm2d(129, eps=1e-05, momentum=0.1, affine=False, track_running_stats=True)
        (14): BatchNorm2d(137, eps=1e-05, momentum=0.1, affine=False, track_running_stats=True)
        (15): BatchNorm2d(145, eps=1e-05, momentum=0.1, affine=False, track_running_stats=True)
        (16): BatchNorm2d(153, eps=1e-05, momentum=0.1, affine=False, track_running_stats=True)
        (17): BatchNorm2d(161, eps=1e-05, momentum=0.1, affine=False, track_running_stats=True)
        (18): BatchNorm2d(168, eps=1e-05, momentum=0.1, affine=False, track_running_stats=True)
        (19): BatchNorm2d(176, eps=1e-05, momentum=0.1, affine=False, track_running_stats=True)
        (20): BatchNorm2d(184, eps=1e-05, momentum=0.1, affine=False, track_running_stats=True)
        (21): BatchNorm2d(192, eps=1e-05, momentum=0.1, affine=False, track_running_stats=True)
        (22): BatchNorm2d(200, eps=1e-05, momentum=0.1, affine=False, track_running_stats=True)
        (23): BatchNorm2d(208, eps=1e-05, momentum=0.1, affine=False, track_running_stats=True)
        (24): BatchNorm2d(216, eps=1e-05, momentum=0.1, affine=False, track_running_stats=True)
        (25): BatchNorm2d(224, eps=1e-05, momentum=0.1, affine=False, track_running_stats=True)
        (26): BatchNorm2d(232, eps=1e-05, momentum=0.1, affine=False, track_running_stats=True)
        (27): BatchNorm2d(240, eps=1e-05, momentum=0.1, affine=False, track_running_stats=True)
        (28): BatchNorm2d(248, eps=1e-05, momentum=0.1, affine=False, track_running_stats=True)
        (29): BatchNorm2d(256, eps=1e-05, momentum=0.1, affine=False, track_running_stats=True)
        (30): BatchNorm2d(264, eps=1e-05, momentum=0.1, affine=False, track_running_stats=True)
      )
      (bn3): ModuleList(
        (0): BatchNorm2d(4, eps=1e-05, momentum=0.1, affine=False, track_running_stats=True)
        (1): BatchNorm2d(5, eps=1e-05, momentum=0.1, affine=False, track_running_stats=True)
        (2): BatchNorm2d(7, eps=1e-05, momentum=0.1, affine=False, track_running_stats=True)
        (3): BatchNorm2d(8, eps=1e-05, momentum=0.1, affine=False, track_running_stats=True)
        (4): BatchNorm2d(9, eps=1e-05, momentum=0.1, affine=False, track_running_stats=True)
        (5): BatchNorm2d(11, eps=1e-05, momentum=0.1, affine=False, track_running_stats=True)
        (6): BatchNorm2d(12, eps=1e-05, momentum=0.1, affine=False, track_running_stats=True)
        (7): BatchNorm2d(13, eps=1e-05, momentum=0.1, affine=False, track_running_stats=True)
        (8): BatchNorm2d(14, eps=1e-05, momentum=0.1, affine=False, track_running_stats=True)
        (9): BatchNorm2d(16, eps=1e-05, momentum=0.1, affine=False, track_running_stats=True)
        (10): BatchNorm2d(17, eps=1e-05, momentum=0.1, affine=False, track_running_stats=True)
        (11): BatchNorm2d(18, eps=1e-05, momentum=0.1, affine=False, track_running_stats=True)
        (12): BatchNorm2d(20, eps=1e-05, momentum=0.1, affine=False, track_running_stats=True)
        (13): BatchNorm2d(21, eps=1e-05, momentum=0.1, affine=False, track_running_stats=True)
        (14): BatchNorm2d(22, eps=1e-05, momentum=0.1, affine=False, track_running_stats=True)
        (15): BatchNorm2d(24, eps=1e-05, momentum=0.1, affine=False, track_running_stats=True)
        (16): BatchNorm2d(25, eps=1e-05, momentum=0.1, affine=False, track_running_stats=True)
        (17): BatchNorm2d(26, eps=1e-05, momentum=0.1, affine=False, track_running_stats=True)
        (18): BatchNorm2d(28, eps=1e-05, momentum=0.1, affine=False, track_running_stats=True)
        (19): BatchNorm2d(29, eps=1e-05, momentum=0.1, affine=False, track_running_stats=True)
        (20): BatchNorm2d(30, eps=1e-05, momentum=0.1, affine=False, track_running_stats=True)
        (21): BatchNorm2d(32, eps=1e-05, momentum=0.1, affine=False, track_running_stats=True)
        (22): BatchNorm2d(33, eps=1e-05, momentum=0.1, affine=False, track_running_stats=True)
        (23): BatchNorm2d(34, eps=1e-05, momentum=0.1, affine=False, track_running_stats=True)
        (24): BatchNorm2d(36, eps=1e-05, momentum=0.1, affine=False, track_running_stats=True)
        (25): BatchNorm2d(37, eps=1e-05, momentum=0.1, affine=False, track_running_stats=True)
        (26): BatchNorm2d(38, eps=1e-05, momentum=0.1, affine=False, track_running_stats=True)
        (27): BatchNorm2d(40, eps=1e-05, momentum=0.1, affine=False, track_running_stats=True)
        (28): BatchNorm2d(41, eps=1e-05, momentum=0.1, affine=False, track_running_stats=True)
        (29): BatchNorm2d(42, eps=1e-05, momentum=0.1, affine=False, track_running_stats=True)
        (30): BatchNorm2d(44, eps=1e-05, momentum=0.1, affine=False, track_running_stats=True)
      )
    )
    (6): bottleneck(
      (fc11): Linear(in_features=3, out_features=64, bias=True)
      (fc12): Linear(in_features=64, out_features=11616, bias=True)
      (fc21): Linear(in_features=3, out_features=64, bias=True)
      (fc22): Linear(in_features=64, out_features=2376, bias=True)
      (fc31): Linear(in_features=3, out_features=64, bias=True)
      (fc32): Linear(in_features=64, out_features=11616, bias=True)
      (bn1): ModuleList(
        (0): BatchNorm2d(26, eps=1e-05, momentum=0.1, affine=False, track_running_stats=True)
        (1): BatchNorm2d(34, eps=1e-05, momentum=0.1, affine=False, track_running_stats=True)
        (2): BatchNorm2d(42, eps=1e-05, momentum=0.1, affine=False, track_running_stats=True)
        (3): BatchNorm2d(50, eps=1e-05, momentum=0.1, affine=False, track_running_stats=True)
        (4): BatchNorm2d(58, eps=1e-05, momentum=0.1, affine=False, track_running_stats=True)
        (5): BatchNorm2d(66, eps=1e-05, momentum=0.1, affine=False, track_running_stats=True)
        (6): BatchNorm2d(73, eps=1e-05, momentum=0.1, affine=False, track_running_stats=True)
        (7): BatchNorm2d(81, eps=1e-05, momentum=0.1, affine=False, track_running_stats=True)
        (8): BatchNorm2d(89, eps=1e-05, momentum=0.1, affine=False, track_running_stats=True)
        (9): BatchNorm2d(97, eps=1e-05, momentum=0.1, affine=False, track_running_stats=True)
        (10): BatchNorm2d(105, eps=1e-05, momentum=0.1, affine=False, track_running_stats=True)
        (11): BatchNorm2d(113, eps=1e-05, momentum=0.1, affine=False, track_running_stats=True)
        (12): BatchNorm2d(121, eps=1e-05, momentum=0.1, affine=False, track_running_stats=True)
        (13): BatchNorm2d(129, eps=1e-05, momentum=0.1, affine=False, track_running_stats=True)
        (14): BatchNorm2d(137, eps=1e-05, momentum=0.1, affine=False, track_running_stats=True)
        (15): BatchNorm2d(145, eps=1e-05, momentum=0.1, affine=False, track_running_stats=True)
        (16): BatchNorm2d(153, eps=1e-05, momentum=0.1, affine=False, track_running_stats=True)
        (17): BatchNorm2d(161, eps=1e-05, momentum=0.1, affine=False, track_running_stats=True)
        (18): BatchNorm2d(168, eps=1e-05, momentum=0.1, affine=False, track_running_stats=True)
        (19): BatchNorm2d(176, eps=1e-05, momentum=0.1, affine=False, track_running_stats=True)
        (20): BatchNorm2d(184, eps=1e-05, momentum=0.1, affine=False, track_running_stats=True)
        (21): BatchNorm2d(192, eps=1e-05, momentum=0.1, affine=False, track_running_stats=True)
        (22): BatchNorm2d(200, eps=1e-05, momentum=0.1, affine=False, track_running_stats=True)
        (23): BatchNorm2d(208, eps=1e-05, momentum=0.1, affine=False, track_running_stats=True)
        (24): BatchNorm2d(216, eps=1e-05, momentum=0.1, affine=False, track_running_stats=True)
        (25): BatchNorm2d(224, eps=1e-05, momentum=0.1, affine=False, track_running_stats=True)
        (26): BatchNorm2d(232, eps=1e-05, momentum=0.1, affine=False, track_running_stats=True)
        (27): BatchNorm2d(240, eps=1e-05, momentum=0.1, affine=False, track_running_stats=True)
        (28): BatchNorm2d(248, eps=1e-05, momentum=0.1, affine=False, track_running_stats=True)
        (29): BatchNorm2d(256, eps=1e-05, momentum=0.1, affine=False, track_running_stats=True)
        (30): BatchNorm2d(264, eps=1e-05, momentum=0.1, affine=False, track_running_stats=True)
      )
      (bn2): ModuleList(
        (0): BatchNorm2d(26, eps=1e-05, momentum=0.1, affine=False, track_running_stats=True)
        (1): BatchNorm2d(34, eps=1e-05, momentum=0.1, affine=False, track_running_stats=True)
        (2): BatchNorm2d(42, eps=1e-05, momentum=0.1, affine=False, track_running_stats=True)
        (3): BatchNorm2d(50, eps=1e-05, momentum=0.1, affine=False, track_running_stats=True)
        (4): BatchNorm2d(58, eps=1e-05, momentum=0.1, affine=False, track_running_stats=True)
        (5): BatchNorm2d(66, eps=1e-05, momentum=0.1, affine=False, track_running_stats=True)
        (6): BatchNorm2d(73, eps=1e-05, momentum=0.1, affine=False, track_running_stats=True)
        (7): BatchNorm2d(81, eps=1e-05, momentum=0.1, affine=False, track_running_stats=True)
        (8): BatchNorm2d(89, eps=1e-05, momentum=0.1, affine=False, track_running_stats=True)
        (9): BatchNorm2d(97, eps=1e-05, momentum=0.1, affine=False, track_running_stats=True)
        (10): BatchNorm2d(105, eps=1e-05, momentum=0.1, affine=False, track_running_stats=True)
        (11): BatchNorm2d(113, eps=1e-05, momentum=0.1, affine=False, track_running_stats=True)
        (12): BatchNorm2d(121, eps=1e-05, momentum=0.1, affine=False, track_running_stats=True)
        (13): BatchNorm2d(129, eps=1e-05, momentum=0.1, affine=False, track_running_stats=True)
        (14): BatchNorm2d(137, eps=1e-05, momentum=0.1, affine=False, track_running_stats=True)
        (15): BatchNorm2d(145, eps=1e-05, momentum=0.1, affine=False, track_running_stats=True)
        (16): BatchNorm2d(153, eps=1e-05, momentum=0.1, affine=False, track_running_stats=True)
        (17): BatchNorm2d(161, eps=1e-05, momentum=0.1, affine=False, track_running_stats=True)
        (18): BatchNorm2d(168, eps=1e-05, momentum=0.1, affine=False, track_running_stats=True)
        (19): BatchNorm2d(176, eps=1e-05, momentum=0.1, affine=False, track_running_stats=True)
        (20): BatchNorm2d(184, eps=1e-05, momentum=0.1, affine=False, track_running_stats=True)
        (21): BatchNorm2d(192, eps=1e-05, momentum=0.1, affine=False, track_running_stats=True)
        (22): BatchNorm2d(200, eps=1e-05, momentum=0.1, affine=False, track_running_stats=True)
        (23): BatchNorm2d(208, eps=1e-05, momentum=0.1, affine=False, track_running_stats=True)
        (24): BatchNorm2d(216, eps=1e-05, momentum=0.1, affine=False, track_running_stats=True)
        (25): BatchNorm2d(224, eps=1e-05, momentum=0.1, affine=False, track_running_stats=True)
        (26): BatchNorm2d(232, eps=1e-05, momentum=0.1, affine=False, track_running_stats=True)
        (27): BatchNorm2d(240, eps=1e-05, momentum=0.1, affine=False, track_running_stats=True)
        (28): BatchNorm2d(248, eps=1e-05, momentum=0.1, affine=False, track_running_stats=True)
        (29): BatchNorm2d(256, eps=1e-05, momentum=0.1, affine=False, track_running_stats=True)
        (30): BatchNorm2d(264, eps=1e-05, momentum=0.1, affine=False, track_running_stats=True)
      )
      (bn3): ModuleList(
        (0): BatchNorm2d(4, eps=1e-05, momentum=0.1, affine=False, track_running_stats=True)
        (1): BatchNorm2d(5, eps=1e-05, momentum=0.1, affine=False, track_running_stats=True)
        (2): BatchNorm2d(7, eps=1e-05, momentum=0.1, affine=False, track_running_stats=True)
        (3): BatchNorm2d(8, eps=1e-05, momentum=0.1, affine=False, track_running_stats=True)
        (4): BatchNorm2d(9, eps=1e-05, momentum=0.1, affine=False, track_running_stats=True)
        (5): BatchNorm2d(11, eps=1e-05, momentum=0.1, affine=False, track_running_stats=True)
        (6): BatchNorm2d(12, eps=1e-05, momentum=0.1, affine=False, track_running_stats=True)
        (7): BatchNorm2d(13, eps=1e-05, momentum=0.1, affine=False, track_running_stats=True)
        (8): BatchNorm2d(14, eps=1e-05, momentum=0.1, affine=False, track_running_stats=True)
        (9): BatchNorm2d(16, eps=1e-05, momentum=0.1, affine=False, track_running_stats=True)
        (10): BatchNorm2d(17, eps=1e-05, momentum=0.1, affine=False, track_running_stats=True)
        (11): BatchNorm2d(18, eps=1e-05, momentum=0.1, affine=False, track_running_stats=True)
        (12): BatchNorm2d(20, eps=1e-05, momentum=0.1, affine=False, track_running_stats=True)
        (13): BatchNorm2d(21, eps=1e-05, momentum=0.1, affine=False, track_running_stats=True)
        (14): BatchNorm2d(22, eps=1e-05, momentum=0.1, affine=False, track_running_stats=True)
        (15): BatchNorm2d(24, eps=1e-05, momentum=0.1, affine=False, track_running_stats=True)
        (16): BatchNorm2d(25, eps=1e-05, momentum=0.1, affine=False, track_running_stats=True)
        (17): BatchNorm2d(26, eps=1e-05, momentum=0.1, affine=False, track_running_stats=True)
        (18): BatchNorm2d(28, eps=1e-05, momentum=0.1, affine=False, track_running_stats=True)
        (19): BatchNorm2d(29, eps=1e-05, momentum=0.1, affine=False, track_running_stats=True)
        (20): BatchNorm2d(30, eps=1e-05, momentum=0.1, affine=False, track_running_stats=True)
        (21): BatchNorm2d(32, eps=1e-05, momentum=0.1, affine=False, track_running_stats=True)
        (22): BatchNorm2d(33, eps=1e-05, momentum=0.1, affine=False, track_running_stats=True)
        (23): BatchNorm2d(34, eps=1e-05, momentum=0.1, affine=False, track_running_stats=True)
        (24): BatchNorm2d(36, eps=1e-05, momentum=0.1, affine=False, track_running_stats=True)
        (25): BatchNorm2d(37, eps=1e-05, momentum=0.1, affine=False, track_running_stats=True)
        (26): BatchNorm2d(38, eps=1e-05, momentum=0.1, affine=False, track_running_stats=True)
        (27): BatchNorm2d(40, eps=1e-05, momentum=0.1, affine=False, track_running_stats=True)
        (28): BatchNorm2d(41, eps=1e-05, momentum=0.1, affine=False, track_running_stats=True)
        (29): BatchNorm2d(42, eps=1e-05, momentum=0.1, affine=False, track_running_stats=True)
        (30): BatchNorm2d(44, eps=1e-05, momentum=0.1, affine=False, track_running_stats=True)
      )
    )
    (7): bottleneck(
      (fc11): Linear(in_features=3, out_features=64, bias=True)
      (fc12): Linear(in_features=64, out_features=11616, bias=True)
      (fc21): Linear(in_features=3, out_features=64, bias=True)
      (fc22): Linear(in_features=64, out_features=2376, bias=True)
      (fc31): Linear(in_features=3, out_features=64, bias=True)
      (fc32): Linear(in_features=64, out_features=23232, bias=True)
      (bn1): ModuleList(
        (0): BatchNorm2d(26, eps=1e-05, momentum=0.1, affine=False, track_running_stats=True)
        (1): BatchNorm2d(34, eps=1e-05, momentum=0.1, affine=False, track_running_stats=True)
        (2): BatchNorm2d(42, eps=1e-05, momentum=0.1, affine=False, track_running_stats=True)
        (3): BatchNorm2d(50, eps=1e-05, momentum=0.1, affine=False, track_running_stats=True)
        (4): BatchNorm2d(58, eps=1e-05, momentum=0.1, affine=False, track_running_stats=True)
        (5): BatchNorm2d(66, eps=1e-05, momentum=0.1, affine=False, track_running_stats=True)
        (6): BatchNorm2d(73, eps=1e-05, momentum=0.1, affine=False, track_running_stats=True)
        (7): BatchNorm2d(81, eps=1e-05, momentum=0.1, affine=False, track_running_stats=True)
        (8): BatchNorm2d(89, eps=1e-05, momentum=0.1, affine=False, track_running_stats=True)
        (9): BatchNorm2d(97, eps=1e-05, momentum=0.1, affine=False, track_running_stats=True)
        (10): BatchNorm2d(105, eps=1e-05, momentum=0.1, affine=False, track_running_stats=True)
        (11): BatchNorm2d(113, eps=1e-05, momentum=0.1, affine=False, track_running_stats=True)
        (12): BatchNorm2d(121, eps=1e-05, momentum=0.1, affine=False, track_running_stats=True)
        (13): BatchNorm2d(129, eps=1e-05, momentum=0.1, affine=False, track_running_stats=True)
        (14): BatchNorm2d(137, eps=1e-05, momentum=0.1, affine=False, track_running_stats=True)
        (15): BatchNorm2d(145, eps=1e-05, momentum=0.1, affine=False, track_running_stats=True)
        (16): BatchNorm2d(153, eps=1e-05, momentum=0.1, affine=False, track_running_stats=True)
        (17): BatchNorm2d(161, eps=1e-05, momentum=0.1, affine=False, track_running_stats=True)
        (18): BatchNorm2d(168, eps=1e-05, momentum=0.1, affine=False, track_running_stats=True)
        (19): BatchNorm2d(176, eps=1e-05, momentum=0.1, affine=False, track_running_stats=True)
        (20): BatchNorm2d(184, eps=1e-05, momentum=0.1, affine=False, track_running_stats=True)
        (21): BatchNorm2d(192, eps=1e-05, momentum=0.1, affine=False, track_running_stats=True)
        (22): BatchNorm2d(200, eps=1e-05, momentum=0.1, affine=False, track_running_stats=True)
        (23): BatchNorm2d(208, eps=1e-05, momentum=0.1, affine=False, track_running_stats=True)
        (24): BatchNorm2d(216, eps=1e-05, momentum=0.1, affine=False, track_running_stats=True)
        (25): BatchNorm2d(224, eps=1e-05, momentum=0.1, affine=False, track_running_stats=True)
        (26): BatchNorm2d(232, eps=1e-05, momentum=0.1, affine=False, track_running_stats=True)
        (27): BatchNorm2d(240, eps=1e-05, momentum=0.1, affine=False, track_running_stats=True)
        (28): BatchNorm2d(248, eps=1e-05, momentum=0.1, affine=False, track_running_stats=True)
        (29): BatchNorm2d(256, eps=1e-05, momentum=0.1, affine=False, track_running_stats=True)
        (30): BatchNorm2d(264, eps=1e-05, momentum=0.1, affine=False, track_running_stats=True)
      )
      (bn2): ModuleList(
        (0): BatchNorm2d(26, eps=1e-05, momentum=0.1, affine=False, track_running_stats=True)
        (1): BatchNorm2d(34, eps=1e-05, momentum=0.1, affine=False, track_running_stats=True)
        (2): BatchNorm2d(42, eps=1e-05, momentum=0.1, affine=False, track_running_stats=True)
        (3): BatchNorm2d(50, eps=1e-05, momentum=0.1, affine=False, track_running_stats=True)
        (4): BatchNorm2d(58, eps=1e-05, momentum=0.1, affine=False, track_running_stats=True)
        (5): BatchNorm2d(66, eps=1e-05, momentum=0.1, affine=False, track_running_stats=True)
        (6): BatchNorm2d(73, eps=1e-05, momentum=0.1, affine=False, track_running_stats=True)
        (7): BatchNorm2d(81, eps=1e-05, momentum=0.1, affine=False, track_running_stats=True)
        (8): BatchNorm2d(89, eps=1e-05, momentum=0.1, affine=False, track_running_stats=True)
        (9): BatchNorm2d(97, eps=1e-05, momentum=0.1, affine=False, track_running_stats=True)
        (10): BatchNorm2d(105, eps=1e-05, momentum=0.1, affine=False, track_running_stats=True)
        (11): BatchNorm2d(113, eps=1e-05, momentum=0.1, affine=False, track_running_stats=True)
        (12): BatchNorm2d(121, eps=1e-05, momentum=0.1, affine=False, track_running_stats=True)
        (13): BatchNorm2d(129, eps=1e-05, momentum=0.1, affine=False, track_running_stats=True)
        (14): BatchNorm2d(137, eps=1e-05, momentum=0.1, affine=False, track_running_stats=True)
        (15): BatchNorm2d(145, eps=1e-05, momentum=0.1, affine=False, track_running_stats=True)
        (16): BatchNorm2d(153, eps=1e-05, momentum=0.1, affine=False, track_running_stats=True)
        (17): BatchNorm2d(161, eps=1e-05, momentum=0.1, affine=False, track_running_stats=True)
        (18): BatchNorm2d(168, eps=1e-05, momentum=0.1, affine=False, track_running_stats=True)
        (19): BatchNorm2d(176, eps=1e-05, momentum=0.1, affine=False, track_running_stats=True)
        (20): BatchNorm2d(184, eps=1e-05, momentum=0.1, affine=False, track_running_stats=True)
        (21): BatchNorm2d(192, eps=1e-05, momentum=0.1, affine=False, track_running_stats=True)
        (22): BatchNorm2d(200, eps=1e-05, momentum=0.1, affine=False, track_running_stats=True)
        (23): BatchNorm2d(208, eps=1e-05, momentum=0.1, affine=False, track_running_stats=True)
        (24): BatchNorm2d(216, eps=1e-05, momentum=0.1, affine=False, track_running_stats=True)
        (25): BatchNorm2d(224, eps=1e-05, momentum=0.1, affine=False, track_running_stats=True)
        (26): BatchNorm2d(232, eps=1e-05, momentum=0.1, affine=False, track_running_stats=True)
        (27): BatchNorm2d(240, eps=1e-05, momentum=0.1, affine=False, track_running_stats=True)
        (28): BatchNorm2d(248, eps=1e-05, momentum=0.1, affine=False, track_running_stats=True)
        (29): BatchNorm2d(256, eps=1e-05, momentum=0.1, affine=False, track_running_stats=True)
        (30): BatchNorm2d(264, eps=1e-05, momentum=0.1, affine=False, track_running_stats=True)
      )
      (bn3): ModuleList(
        (0): BatchNorm2d(8, eps=1e-05, momentum=0.1, affine=False, track_running_stats=True)
        (1): BatchNorm2d(11, eps=1e-05, momentum=0.1, affine=False, track_running_stats=True)
        (2): BatchNorm2d(14, eps=1e-05, momentum=0.1, affine=False, track_running_stats=True)
        (3): BatchNorm2d(16, eps=1e-05, momentum=0.1, affine=False, track_running_stats=True)
        (4): BatchNorm2d(19, eps=1e-05, momentum=0.1, affine=False, track_running_stats=True)
        (5): BatchNorm2d(22, eps=1e-05, momentum=0.1, affine=False, track_running_stats=True)
        (6): BatchNorm2d(24, eps=1e-05, momentum=0.1, affine=False, track_running_stats=True)
        (7): BatchNorm2d(27, eps=1e-05, momentum=0.1, affine=False, track_running_stats=True)
        (8): BatchNorm2d(29, eps=1e-05, momentum=0.1, affine=False, track_running_stats=True)
        (9): BatchNorm2d(32, eps=1e-05, momentum=0.1, affine=False, track_running_stats=True)
        (10): BatchNorm2d(35, eps=1e-05, momentum=0.1, affine=False, track_running_stats=True)
        (11): BatchNorm2d(37, eps=1e-05, momentum=0.1, affine=False, track_running_stats=True)
        (12): BatchNorm2d(40, eps=1e-05, momentum=0.1, affine=False, track_running_stats=True)
        (13): BatchNorm2d(43, eps=1e-05, momentum=0.1, affine=False, track_running_stats=True)
        (14): BatchNorm2d(45, eps=1e-05, momentum=0.1, affine=False, track_running_stats=True)
        (15): BatchNorm2d(48, eps=1e-05, momentum=0.1, affine=False, track_running_stats=True)
        (16): BatchNorm2d(51, eps=1e-05, momentum=0.1, affine=False, track_running_stats=True)
        (17): BatchNorm2d(53, eps=1e-05, momentum=0.1, affine=False, track_running_stats=True)
        (18): BatchNorm2d(56, eps=1e-05, momentum=0.1, affine=False, track_running_stats=True)
        (19): BatchNorm2d(58, eps=1e-05, momentum=0.1, affine=False, track_running_stats=True)
        (20): BatchNorm2d(61, eps=1e-05, momentum=0.1, affine=False, track_running_stats=True)
        (21): BatchNorm2d(64, eps=1e-05, momentum=0.1, affine=False, track_running_stats=True)
        (22): BatchNorm2d(66, eps=1e-05, momentum=0.1, affine=False, track_running_stats=True)
        (23): BatchNorm2d(69, eps=1e-05, momentum=0.1, affine=False, track_running_stats=True)
        (24): BatchNorm2d(72, eps=1e-05, momentum=0.1, affine=False, track_running_stats=True)
        (25): BatchNorm2d(74, eps=1e-05, momentum=0.1, affine=False, track_running_stats=True)
        (26): BatchNorm2d(77, eps=1e-05, momentum=0.1, affine=False, track_running_stats=True)
        (27): BatchNorm2d(80, eps=1e-05, momentum=0.1, affine=False, track_running_stats=True)
        (28): BatchNorm2d(82, eps=1e-05, momentum=0.1, affine=False, track_running_stats=True)
        (29): BatchNorm2d(85, eps=1e-05, momentum=0.1, affine=False, track_running_stats=True)
        (30): BatchNorm2d(88, eps=1e-05, momentum=0.1, affine=False, track_running_stats=True)
      )
    )
    (8): bottleneck(
      (fc11): Linear(in_features=3, out_features=64, bias=True)
      (fc12): Linear(in_features=64, out_features=46464, bias=True)
      (fc21): Linear(in_features=3, out_features=64, bias=True)
      (fc22): Linear(in_features=64, out_features=4752, bias=True)
      (fc31): Linear(in_features=3, out_features=64, bias=True)
      (fc32): Linear(in_features=64, out_features=46464, bias=True)
      (bn1): ModuleList(
        (0): BatchNorm2d(52, eps=1e-05, momentum=0.1, affine=False, track_running_stats=True)
        (1): BatchNorm2d(68, eps=1e-05, momentum=0.1, affine=False, track_running_stats=True)
        (2): BatchNorm2d(84, eps=1e-05, momentum=0.1, affine=False, track_running_stats=True)
        (3): BatchNorm2d(100, eps=1e-05, momentum=0.1, affine=False, track_running_stats=True)
        (4): BatchNorm2d(116, eps=1e-05, momentum=0.1, affine=False, track_running_stats=True)
        (5): BatchNorm2d(132, eps=1e-05, momentum=0.1, affine=False, track_running_stats=True)
        (6): BatchNorm2d(147, eps=1e-05, momentum=0.1, affine=False, track_running_stats=True)
        (7): BatchNorm2d(163, eps=1e-05, momentum=0.1, affine=False, track_running_stats=True)
        (8): BatchNorm2d(179, eps=1e-05, momentum=0.1, affine=False, track_running_stats=True)
        (9): BatchNorm2d(195, eps=1e-05, momentum=0.1, affine=False, track_running_stats=True)
        (10): BatchNorm2d(211, eps=1e-05, momentum=0.1, affine=False, track_running_stats=True)
        (11): BatchNorm2d(227, eps=1e-05, momentum=0.1, affine=False, track_running_stats=True)
        (12): BatchNorm2d(242, eps=1e-05, momentum=0.1, affine=False, track_running_stats=True)
        (13): BatchNorm2d(258, eps=1e-05, momentum=0.1, affine=False, track_running_stats=True)
        (14): BatchNorm2d(274, eps=1e-05, momentum=0.1, affine=False, track_running_stats=True)
        (15): BatchNorm2d(290, eps=1e-05, momentum=0.1, affine=False, track_running_stats=True)
        (16): BatchNorm2d(306, eps=1e-05, momentum=0.1, affine=False, track_running_stats=True)
        (17): BatchNorm2d(322, eps=1e-05, momentum=0.1, affine=False, track_running_stats=True)
        (18): BatchNorm2d(337, eps=1e-05, momentum=0.1, affine=False, track_running_stats=True)
        (19): BatchNorm2d(353, eps=1e-05, momentum=0.1, affine=False, track_running_stats=True)
        (20): BatchNorm2d(369, eps=1e-05, momentum=0.1, affine=False, track_running_stats=True)
        (21): BatchNorm2d(385, eps=1e-05, momentum=0.1, affine=False, track_running_stats=True)
        (22): BatchNorm2d(401, eps=1e-05, momentum=0.1, affine=False, track_running_stats=True)
        (23): BatchNorm2d(417, eps=1e-05, momentum=0.1, affine=False, track_running_stats=True)
        (24): BatchNorm2d(432, eps=1e-05, momentum=0.1, affine=False, track_running_stats=True)
        (25): BatchNorm2d(448, eps=1e-05, momentum=0.1, affine=False, track_running_stats=True)
        (26): BatchNorm2d(464, eps=1e-05, momentum=0.1, affine=False, track_running_stats=True)
        (27): BatchNorm2d(480, eps=1e-05, momentum=0.1, affine=False, track_running_stats=True)
        (28): BatchNorm2d(496, eps=1e-05, momentum=0.1, affine=False, track_running_stats=True)
        (29): BatchNorm2d(512, eps=1e-05, momentum=0.1, affine=False, track_running_stats=True)
        (30): BatchNorm2d(528, eps=1e-05, momentum=0.1, affine=False, track_running_stats=True)
      )
      (bn2): ModuleList(
        (0): BatchNorm2d(52, eps=1e-05, momentum=0.1, affine=False, track_running_stats=True)
        (1): BatchNorm2d(68, eps=1e-05, momentum=0.1, affine=False, track_running_stats=True)
        (2): BatchNorm2d(84, eps=1e-05, momentum=0.1, affine=False, track_running_stats=True)
        (3): BatchNorm2d(100, eps=1e-05, momentum=0.1, affine=False, track_running_stats=True)
        (4): BatchNorm2d(116, eps=1e-05, momentum=0.1, affine=False, track_running_stats=True)
        (5): BatchNorm2d(132, eps=1e-05, momentum=0.1, affine=False, track_running_stats=True)
        (6): BatchNorm2d(147, eps=1e-05, momentum=0.1, affine=False, track_running_stats=True)
        (7): BatchNorm2d(163, eps=1e-05, momentum=0.1, affine=False, track_running_stats=True)
        (8): BatchNorm2d(179, eps=1e-05, momentum=0.1, affine=False, track_running_stats=True)
        (9): BatchNorm2d(195, eps=1e-05, momentum=0.1, affine=False, track_running_stats=True)
        (10): BatchNorm2d(211, eps=1e-05, momentum=0.1, affine=False, track_running_stats=True)
        (11): BatchNorm2d(227, eps=1e-05, momentum=0.1, affine=False, track_running_stats=True)
        (12): BatchNorm2d(242, eps=1e-05, momentum=0.1, affine=False, track_running_stats=True)
        (13): BatchNorm2d(258, eps=1e-05, momentum=0.1, affine=False, track_running_stats=True)
        (14): BatchNorm2d(274, eps=1e-05, momentum=0.1, affine=False, track_running_stats=True)
        (15): BatchNorm2d(290, eps=1e-05, momentum=0.1, affine=False, track_running_stats=True)
        (16): BatchNorm2d(306, eps=1e-05, momentum=0.1, affine=False, track_running_stats=True)
        (17): BatchNorm2d(322, eps=1e-05, momentum=0.1, affine=False, track_running_stats=True)
        (18): BatchNorm2d(337, eps=1e-05, momentum=0.1, affine=False, track_running_stats=True)
        (19): BatchNorm2d(353, eps=1e-05, momentum=0.1, affine=False, track_running_stats=True)
        (20): BatchNorm2d(369, eps=1e-05, momentum=0.1, affine=False, track_running_stats=True)
        (21): BatchNorm2d(385, eps=1e-05, momentum=0.1, affine=False, track_running_stats=True)
        (22): BatchNorm2d(401, eps=1e-05, momentum=0.1, affine=False, track_running_stats=True)
        (23): BatchNorm2d(417, eps=1e-05, momentum=0.1, affine=False, track_running_stats=True)
        (24): BatchNorm2d(432, eps=1e-05, momentum=0.1, affine=False, track_running_stats=True)
        (25): BatchNorm2d(448, eps=1e-05, momentum=0.1, affine=False, track_running_stats=True)
        (26): BatchNorm2d(464, eps=1e-05, momentum=0.1, affine=False, track_running_stats=True)
        (27): BatchNorm2d(480, eps=1e-05, momentum=0.1, affine=False, track_running_stats=True)
        (28): BatchNorm2d(496, eps=1e-05, momentum=0.1, affine=False, track_running_stats=True)
        (29): BatchNorm2d(512, eps=1e-05, momentum=0.1, affine=False, track_running_stats=True)
        (30): BatchNorm2d(528, eps=1e-05, momentum=0.1, affine=False, track_running_stats=True)
      )
      (bn3): ModuleList(
        (0): BatchNorm2d(8, eps=1e-05, momentum=0.1, affine=False, track_running_stats=True)
        (1): BatchNorm2d(11, eps=1e-05, momentum=0.1, affine=False, track_running_stats=True)
        (2): BatchNorm2d(14, eps=1e-05, momentum=0.1, affine=False, track_running_stats=True)
        (3): BatchNorm2d(16, eps=1e-05, momentum=0.1, affine=False, track_running_stats=True)
        (4): BatchNorm2d(19, eps=1e-05, momentum=0.1, affine=False, track_running_stats=True)
        (5): BatchNorm2d(22, eps=1e-05, momentum=0.1, affine=False, track_running_stats=True)
        (6): BatchNorm2d(24, eps=1e-05, momentum=0.1, affine=False, track_running_stats=True)
        (7): BatchNorm2d(27, eps=1e-05, momentum=0.1, affine=False, track_running_stats=True)
        (8): BatchNorm2d(29, eps=1e-05, momentum=0.1, affine=False, track_running_stats=True)
        (9): BatchNorm2d(32, eps=1e-05, momentum=0.1, affine=False, track_running_stats=True)
        (10): BatchNorm2d(35, eps=1e-05, momentum=0.1, affine=False, track_running_stats=True)
        (11): BatchNorm2d(37, eps=1e-05, momentum=0.1, affine=False, track_running_stats=True)
        (12): BatchNorm2d(40, eps=1e-05, momentum=0.1, affine=False, track_running_stats=True)
        (13): BatchNorm2d(43, eps=1e-05, momentum=0.1, affine=False, track_running_stats=True)
        (14): BatchNorm2d(45, eps=1e-05, momentum=0.1, affine=False, track_running_stats=True)
        (15): BatchNorm2d(48, eps=1e-05, momentum=0.1, affine=False, track_running_stats=True)
        (16): BatchNorm2d(51, eps=1e-05, momentum=0.1, affine=False, track_running_stats=True)
        (17): BatchNorm2d(53, eps=1e-05, momentum=0.1, affine=False, track_running_stats=True)
        (18): BatchNorm2d(56, eps=1e-05, momentum=0.1, affine=False, track_running_stats=True)
        (19): BatchNorm2d(58, eps=1e-05, momentum=0.1, affine=False, track_running_stats=True)
        (20): BatchNorm2d(61, eps=1e-05, momentum=0.1, affine=False, track_running_stats=True)
        (21): BatchNorm2d(64, eps=1e-05, momentum=0.1, affine=False, track_running_stats=True)
        (22): BatchNorm2d(66, eps=1e-05, momentum=0.1, affine=False, track_running_stats=True)
        (23): BatchNorm2d(69, eps=1e-05, momentum=0.1, affine=False, track_running_stats=True)
        (24): BatchNorm2d(72, eps=1e-05, momentum=0.1, affine=False, track_running_stats=True)
        (25): BatchNorm2d(74, eps=1e-05, momentum=0.1, affine=False, track_running_stats=True)
        (26): BatchNorm2d(77, eps=1e-05, momentum=0.1, affine=False, track_running_stats=True)
        (27): BatchNorm2d(80, eps=1e-05, momentum=0.1, affine=False, track_running_stats=True)
        (28): BatchNorm2d(82, eps=1e-05, momentum=0.1, affine=False, track_running_stats=True)
        (29): BatchNorm2d(85, eps=1e-05, momentum=0.1, affine=False, track_running_stats=True)
        (30): BatchNorm2d(88, eps=1e-05, momentum=0.1, affine=False, track_running_stats=True)
      )
    )
    (9): bottleneck(
      (fc11): Linear(in_features=3, out_features=64, bias=True)
      (fc12): Linear(in_features=64, out_features=46464, bias=True)
      (fc21): Linear(in_features=3, out_features=64, bias=True)
      (fc22): Linear(in_features=64, out_features=4752, bias=True)
      (fc31): Linear(in_features=3, out_features=64, bias=True)
      (fc32): Linear(in_features=64, out_features=46464, bias=True)
      (bn1): ModuleList(
        (0): BatchNorm2d(52, eps=1e-05, momentum=0.1, affine=False, track_running_stats=True)
        (1): BatchNorm2d(68, eps=1e-05, momentum=0.1, affine=False, track_running_stats=True)
        (2): BatchNorm2d(84, eps=1e-05, momentum=0.1, affine=False, track_running_stats=True)
        (3): BatchNorm2d(100, eps=1e-05, momentum=0.1, affine=False, track_running_stats=True)
        (4): BatchNorm2d(116, eps=1e-05, momentum=0.1, affine=False, track_running_stats=True)
        (5): BatchNorm2d(132, eps=1e-05, momentum=0.1, affine=False, track_running_stats=True)
        (6): BatchNorm2d(147, eps=1e-05, momentum=0.1, affine=False, track_running_stats=True)
        (7): BatchNorm2d(163, eps=1e-05, momentum=0.1, affine=False, track_running_stats=True)
        (8): BatchNorm2d(179, eps=1e-05, momentum=0.1, affine=False, track_running_stats=True)
        (9): BatchNorm2d(195, eps=1e-05, momentum=0.1, affine=False, track_running_stats=True)
        (10): BatchNorm2d(211, eps=1e-05, momentum=0.1, affine=False, track_running_stats=True)
        (11): BatchNorm2d(227, eps=1e-05, momentum=0.1, affine=False, track_running_stats=True)
        (12): BatchNorm2d(242, eps=1e-05, momentum=0.1, affine=False, track_running_stats=True)
        (13): BatchNorm2d(258, eps=1e-05, momentum=0.1, affine=False, track_running_stats=True)
        (14): BatchNorm2d(274, eps=1e-05, momentum=0.1, affine=False, track_running_stats=True)
        (15): BatchNorm2d(290, eps=1e-05, momentum=0.1, affine=False, track_running_stats=True)
        (16): BatchNorm2d(306, eps=1e-05, momentum=0.1, affine=False, track_running_stats=True)
        (17): BatchNorm2d(322, eps=1e-05, momentum=0.1, affine=False, track_running_stats=True)
        (18): BatchNorm2d(337, eps=1e-05, momentum=0.1, affine=False, track_running_stats=True)
        (19): BatchNorm2d(353, eps=1e-05, momentum=0.1, affine=False, track_running_stats=True)
        (20): BatchNorm2d(369, eps=1e-05, momentum=0.1, affine=False, track_running_stats=True)
        (21): BatchNorm2d(385, eps=1e-05, momentum=0.1, affine=False, track_running_stats=True)
        (22): BatchNorm2d(401, eps=1e-05, momentum=0.1, affine=False, track_running_stats=True)
        (23): BatchNorm2d(417, eps=1e-05, momentum=0.1, affine=False, track_running_stats=True)
        (24): BatchNorm2d(432, eps=1e-05, momentum=0.1, affine=False, track_running_stats=True)
        (25): BatchNorm2d(448, eps=1e-05, momentum=0.1, affine=False, track_running_stats=True)
        (26): BatchNorm2d(464, eps=1e-05, momentum=0.1, affine=False, track_running_stats=True)
        (27): BatchNorm2d(480, eps=1e-05, momentum=0.1, affine=False, track_running_stats=True)
        (28): BatchNorm2d(496, eps=1e-05, momentum=0.1, affine=False, track_running_stats=True)
        (29): BatchNorm2d(512, eps=1e-05, momentum=0.1, affine=False, track_running_stats=True)
        (30): BatchNorm2d(528, eps=1e-05, momentum=0.1, affine=False, track_running_stats=True)
      )
      (bn2): ModuleList(
        (0): BatchNorm2d(52, eps=1e-05, momentum=0.1, affine=False, track_running_stats=True)
        (1): BatchNorm2d(68, eps=1e-05, momentum=0.1, affine=False, track_running_stats=True)
        (2): BatchNorm2d(84, eps=1e-05, momentum=0.1, affine=False, track_running_stats=True)
        (3): BatchNorm2d(100, eps=1e-05, momentum=0.1, affine=False, track_running_stats=True)
        (4): BatchNorm2d(116, eps=1e-05, momentum=0.1, affine=False, track_running_stats=True)
        (5): BatchNorm2d(132, eps=1e-05, momentum=0.1, affine=False, track_running_stats=True)
        (6): BatchNorm2d(147, eps=1e-05, momentum=0.1, affine=False, track_running_stats=True)
        (7): BatchNorm2d(163, eps=1e-05, momentum=0.1, affine=False, track_running_stats=True)
        (8): BatchNorm2d(179, eps=1e-05, momentum=0.1, affine=False, track_running_stats=True)
        (9): BatchNorm2d(195, eps=1e-05, momentum=0.1, affine=False, track_running_stats=True)
        (10): BatchNorm2d(211, eps=1e-05, momentum=0.1, affine=False, track_running_stats=True)
        (11): BatchNorm2d(227, eps=1e-05, momentum=0.1, affine=False, track_running_stats=True)
        (12): BatchNorm2d(242, eps=1e-05, momentum=0.1, affine=False, track_running_stats=True)
        (13): BatchNorm2d(258, eps=1e-05, momentum=0.1, affine=False, track_running_stats=True)
        (14): BatchNorm2d(274, eps=1e-05, momentum=0.1, affine=False, track_running_stats=True)
        (15): BatchNorm2d(290, eps=1e-05, momentum=0.1, affine=False, track_running_stats=True)
        (16): BatchNorm2d(306, eps=1e-05, momentum=0.1, affine=False, track_running_stats=True)
        (17): BatchNorm2d(322, eps=1e-05, momentum=0.1, affine=False, track_running_stats=True)
        (18): BatchNorm2d(337, eps=1e-05, momentum=0.1, affine=False, track_running_stats=True)
        (19): BatchNorm2d(353, eps=1e-05, momentum=0.1, affine=False, track_running_stats=True)
        (20): BatchNorm2d(369, eps=1e-05, momentum=0.1, affine=False, track_running_stats=True)
        (21): BatchNorm2d(385, eps=1e-05, momentum=0.1, affine=False, track_running_stats=True)
        (22): BatchNorm2d(401, eps=1e-05, momentum=0.1, affine=False, track_running_stats=True)
        (23): BatchNorm2d(417, eps=1e-05, momentum=0.1, affine=False, track_running_stats=True)
        (24): BatchNorm2d(432, eps=1e-05, momentum=0.1, affine=False, track_running_stats=True)
        (25): BatchNorm2d(448, eps=1e-05, momentum=0.1, affine=False, track_running_stats=True)
        (26): BatchNorm2d(464, eps=1e-05, momentum=0.1, affine=False, track_running_stats=True)
        (27): BatchNorm2d(480, eps=1e-05, momentum=0.1, affine=False, track_running_stats=True)
        (28): BatchNorm2d(496, eps=1e-05, momentum=0.1, affine=False, track_running_stats=True)
        (29): BatchNorm2d(512, eps=1e-05, momentum=0.1, affine=False, track_running_stats=True)
        (30): BatchNorm2d(528, eps=1e-05, momentum=0.1, affine=False, track_running_stats=True)
      )
      (bn3): ModuleList(
        (0): BatchNorm2d(8, eps=1e-05, momentum=0.1, affine=False, track_running_stats=True)
        (1): BatchNorm2d(11, eps=1e-05, momentum=0.1, affine=False, track_running_stats=True)
        (2): BatchNorm2d(14, eps=1e-05, momentum=0.1, affine=False, track_running_stats=True)
        (3): BatchNorm2d(16, eps=1e-05, momentum=0.1, affine=False, track_running_stats=True)
        (4): BatchNorm2d(19, eps=1e-05, momentum=0.1, affine=False, track_running_stats=True)
        (5): BatchNorm2d(22, eps=1e-05, momentum=0.1, affine=False, track_running_stats=True)
        (6): BatchNorm2d(24, eps=1e-05, momentum=0.1, affine=False, track_running_stats=True)
        (7): BatchNorm2d(27, eps=1e-05, momentum=0.1, affine=False, track_running_stats=True)
        (8): BatchNorm2d(29, eps=1e-05, momentum=0.1, affine=False, track_running_stats=True)
        (9): BatchNorm2d(32, eps=1e-05, momentum=0.1, affine=False, track_running_stats=True)
        (10): BatchNorm2d(35, eps=1e-05, momentum=0.1, affine=False, track_running_stats=True)
        (11): BatchNorm2d(37, eps=1e-05, momentum=0.1, affine=False, track_running_stats=True)
        (12): BatchNorm2d(40, eps=1e-05, momentum=0.1, affine=False, track_running_stats=True)
        (13): BatchNorm2d(43, eps=1e-05, momentum=0.1, affine=False, track_running_stats=True)
        (14): BatchNorm2d(45, eps=1e-05, momentum=0.1, affine=False, track_running_stats=True)
        (15): BatchNorm2d(48, eps=1e-05, momentum=0.1, affine=False, track_running_stats=True)
        (16): BatchNorm2d(51, eps=1e-05, momentum=0.1, affine=False, track_running_stats=True)
        (17): BatchNorm2d(53, eps=1e-05, momentum=0.1, affine=False, track_running_stats=True)
        (18): BatchNorm2d(56, eps=1e-05, momentum=0.1, affine=False, track_running_stats=True)
        (19): BatchNorm2d(58, eps=1e-05, momentum=0.1, affine=False, track_running_stats=True)
        (20): BatchNorm2d(61, eps=1e-05, momentum=0.1, affine=False, track_running_stats=True)
        (21): BatchNorm2d(64, eps=1e-05, momentum=0.1, affine=False, track_running_stats=True)
        (22): BatchNorm2d(66, eps=1e-05, momentum=0.1, affine=False, track_running_stats=True)
        (23): BatchNorm2d(69, eps=1e-05, momentum=0.1, affine=False, track_running_stats=True)
        (24): BatchNorm2d(72, eps=1e-05, momentum=0.1, affine=False, track_running_stats=True)
        (25): BatchNorm2d(74, eps=1e-05, momentum=0.1, affine=False, track_running_stats=True)
        (26): BatchNorm2d(77, eps=1e-05, momentum=0.1, affine=False, track_running_stats=True)
        (27): BatchNorm2d(80, eps=1e-05, momentum=0.1, affine=False, track_running_stats=True)
        (28): BatchNorm2d(82, eps=1e-05, momentum=0.1, affine=False, track_running_stats=True)
        (29): BatchNorm2d(85, eps=1e-05, momentum=0.1, affine=False, track_running_stats=True)
        (30): BatchNorm2d(88, eps=1e-05, momentum=0.1, affine=False, track_running_stats=True)
      )
    )
    (10): bottleneck(
      (fc11): Linear(in_features=3, out_features=64, bias=True)
      (fc12): Linear(in_features=64, out_features=46464, bias=True)
      (fc21): Linear(in_features=3, out_features=64, bias=True)
      (fc22): Linear(in_features=64, out_features=4752, bias=True)
      (fc31): Linear(in_features=3, out_features=64, bias=True)
      (fc32): Linear(in_features=64, out_features=46464, bias=True)
      (bn1): ModuleList(
        (0): BatchNorm2d(52, eps=1e-05, momentum=0.1, affine=False, track_running_stats=True)
        (1): BatchNorm2d(68, eps=1e-05, momentum=0.1, affine=False, track_running_stats=True)
        (2): BatchNorm2d(84, eps=1e-05, momentum=0.1, affine=False, track_running_stats=True)
        (3): BatchNorm2d(100, eps=1e-05, momentum=0.1, affine=False, track_running_stats=True)
        (4): BatchNorm2d(116, eps=1e-05, momentum=0.1, affine=False, track_running_stats=True)
        (5): BatchNorm2d(132, eps=1e-05, momentum=0.1, affine=False, track_running_stats=True)
        (6): BatchNorm2d(147, eps=1e-05, momentum=0.1, affine=False, track_running_stats=True)
        (7): BatchNorm2d(163, eps=1e-05, momentum=0.1, affine=False, track_running_stats=True)
        (8): BatchNorm2d(179, eps=1e-05, momentum=0.1, affine=False, track_running_stats=True)
        (9): BatchNorm2d(195, eps=1e-05, momentum=0.1, affine=False, track_running_stats=True)
        (10): BatchNorm2d(211, eps=1e-05, momentum=0.1, affine=False, track_running_stats=True)
        (11): BatchNorm2d(227, eps=1e-05, momentum=0.1, affine=False, track_running_stats=True)
        (12): BatchNorm2d(242, eps=1e-05, momentum=0.1, affine=False, track_running_stats=True)
        (13): BatchNorm2d(258, eps=1e-05, momentum=0.1, affine=False, track_running_stats=True)
        (14): BatchNorm2d(274, eps=1e-05, momentum=0.1, affine=False, track_running_stats=True)
        (15): BatchNorm2d(290, eps=1e-05, momentum=0.1, affine=False, track_running_stats=True)
        (16): BatchNorm2d(306, eps=1e-05, momentum=0.1, affine=False, track_running_stats=True)
        (17): BatchNorm2d(322, eps=1e-05, momentum=0.1, affine=False, track_running_stats=True)
        (18): BatchNorm2d(337, eps=1e-05, momentum=0.1, affine=False, track_running_stats=True)
        (19): BatchNorm2d(353, eps=1e-05, momentum=0.1, affine=False, track_running_stats=True)
        (20): BatchNorm2d(369, eps=1e-05, momentum=0.1, affine=False, track_running_stats=True)
        (21): BatchNorm2d(385, eps=1e-05, momentum=0.1, affine=False, track_running_stats=True)
        (22): BatchNorm2d(401, eps=1e-05, momentum=0.1, affine=False, track_running_stats=True)
        (23): BatchNorm2d(417, eps=1e-05, momentum=0.1, affine=False, track_running_stats=True)
        (24): BatchNorm2d(432, eps=1e-05, momentum=0.1, affine=False, track_running_stats=True)
        (25): BatchNorm2d(448, eps=1e-05, momentum=0.1, affine=False, track_running_stats=True)
        (26): BatchNorm2d(464, eps=1e-05, momentum=0.1, affine=False, track_running_stats=True)
        (27): BatchNorm2d(480, eps=1e-05, momentum=0.1, affine=False, track_running_stats=True)
        (28): BatchNorm2d(496, eps=1e-05, momentum=0.1, affine=False, track_running_stats=True)
        (29): BatchNorm2d(512, eps=1e-05, momentum=0.1, affine=False, track_running_stats=True)
        (30): BatchNorm2d(528, eps=1e-05, momentum=0.1, affine=False, track_running_stats=True)
      )
      (bn2): ModuleList(
        (0): BatchNorm2d(52, eps=1e-05, momentum=0.1, affine=False, track_running_stats=True)
        (1): BatchNorm2d(68, eps=1e-05, momentum=0.1, affine=False, track_running_stats=True)
        (2): BatchNorm2d(84, eps=1e-05, momentum=0.1, affine=False, track_running_stats=True)
        (3): BatchNorm2d(100, eps=1e-05, momentum=0.1, affine=False, track_running_stats=True)
        (4): BatchNorm2d(116, eps=1e-05, momentum=0.1, affine=False, track_running_stats=True)
        (5): BatchNorm2d(132, eps=1e-05, momentum=0.1, affine=False, track_running_stats=True)
        (6): BatchNorm2d(147, eps=1e-05, momentum=0.1, affine=False, track_running_stats=True)
        (7): BatchNorm2d(163, eps=1e-05, momentum=0.1, affine=False, track_running_stats=True)
        (8): BatchNorm2d(179, eps=1e-05, momentum=0.1, affine=False, track_running_stats=True)
        (9): BatchNorm2d(195, eps=1e-05, momentum=0.1, affine=False, track_running_stats=True)
        (10): BatchNorm2d(211, eps=1e-05, momentum=0.1, affine=False, track_running_stats=True)
        (11): BatchNorm2d(227, eps=1e-05, momentum=0.1, affine=False, track_running_stats=True)
        (12): BatchNorm2d(242, eps=1e-05, momentum=0.1, affine=False, track_running_stats=True)
        (13): BatchNorm2d(258, eps=1e-05, momentum=0.1, affine=False, track_running_stats=True)
        (14): BatchNorm2d(274, eps=1e-05, momentum=0.1, affine=False, track_running_stats=True)
        (15): BatchNorm2d(290, eps=1e-05, momentum=0.1, affine=False, track_running_stats=True)
        (16): BatchNorm2d(306, eps=1e-05, momentum=0.1, affine=False, track_running_stats=True)
        (17): BatchNorm2d(322, eps=1e-05, momentum=0.1, affine=False, track_running_stats=True)
        (18): BatchNorm2d(337, eps=1e-05, momentum=0.1, affine=False, track_running_stats=True)
        (19): BatchNorm2d(353, eps=1e-05, momentum=0.1, affine=False, track_running_stats=True)
        (20): BatchNorm2d(369, eps=1e-05, momentum=0.1, affine=False, track_running_stats=True)
        (21): BatchNorm2d(385, eps=1e-05, momentum=0.1, affine=False, track_running_stats=True)
        (22): BatchNorm2d(401, eps=1e-05, momentum=0.1, affine=False, track_running_stats=True)
        (23): BatchNorm2d(417, eps=1e-05, momentum=0.1, affine=False, track_running_stats=True)
        (24): BatchNorm2d(432, eps=1e-05, momentum=0.1, affine=False, track_running_stats=True)
        (25): BatchNorm2d(448, eps=1e-05, momentum=0.1, affine=False, track_running_stats=True)
        (26): BatchNorm2d(464, eps=1e-05, momentum=0.1, affine=False, track_running_stats=True)
        (27): BatchNorm2d(480, eps=1e-05, momentum=0.1, affine=False, track_running_stats=True)
        (28): BatchNorm2d(496, eps=1e-05, momentum=0.1, affine=False, track_running_stats=True)
        (29): BatchNorm2d(512, eps=1e-05, momentum=0.1, affine=False, track_running_stats=True)
        (30): BatchNorm2d(528, eps=1e-05, momentum=0.1, affine=False, track_running_stats=True)
      )
      (bn3): ModuleList(
        (0): BatchNorm2d(8, eps=1e-05, momentum=0.1, affine=False, track_running_stats=True)
        (1): BatchNorm2d(11, eps=1e-05, momentum=0.1, affine=False, track_running_stats=True)
        (2): BatchNorm2d(14, eps=1e-05, momentum=0.1, affine=False, track_running_stats=True)
        (3): BatchNorm2d(16, eps=1e-05, momentum=0.1, affine=False, track_running_stats=True)
        (4): BatchNorm2d(19, eps=1e-05, momentum=0.1, affine=False, track_running_stats=True)
        (5): BatchNorm2d(22, eps=1e-05, momentum=0.1, affine=False, track_running_stats=True)
        (6): BatchNorm2d(24, eps=1e-05, momentum=0.1, affine=False, track_running_stats=True)
        (7): BatchNorm2d(27, eps=1e-05, momentum=0.1, affine=False, track_running_stats=True)
        (8): BatchNorm2d(29, eps=1e-05, momentum=0.1, affine=False, track_running_stats=True)
        (9): BatchNorm2d(32, eps=1e-05, momentum=0.1, affine=False, track_running_stats=True)
        (10): BatchNorm2d(35, eps=1e-05, momentum=0.1, affine=False, track_running_stats=True)
        (11): BatchNorm2d(37, eps=1e-05, momentum=0.1, affine=False, track_running_stats=True)
        (12): BatchNorm2d(40, eps=1e-05, momentum=0.1, affine=False, track_running_stats=True)
        (13): BatchNorm2d(43, eps=1e-05, momentum=0.1, affine=False, track_running_stats=True)
        (14): BatchNorm2d(45, eps=1e-05, momentum=0.1, affine=False, track_running_stats=True)
        (15): BatchNorm2d(48, eps=1e-05, momentum=0.1, affine=False, track_running_stats=True)
        (16): BatchNorm2d(51, eps=1e-05, momentum=0.1, affine=False, track_running_stats=True)
        (17): BatchNorm2d(53, eps=1e-05, momentum=0.1, affine=False, track_running_stats=True)
        (18): BatchNorm2d(56, eps=1e-05, momentum=0.1, affine=False, track_running_stats=True)
        (19): BatchNorm2d(58, eps=1e-05, momentum=0.1, affine=False, track_running_stats=True)
        (20): BatchNorm2d(61, eps=1e-05, momentum=0.1, affine=False, track_running_stats=True)
        (21): BatchNorm2d(64, eps=1e-05, momentum=0.1, affine=False, track_running_stats=True)
        (22): BatchNorm2d(66, eps=1e-05, momentum=0.1, affine=False, track_running_stats=True)
        (23): BatchNorm2d(69, eps=1e-05, momentum=0.1, affine=False, track_running_stats=True)
        (24): BatchNorm2d(72, eps=1e-05, momentum=0.1, affine=False, track_running_stats=True)
        (25): BatchNorm2d(74, eps=1e-05, momentum=0.1, affine=False, track_running_stats=True)
        (26): BatchNorm2d(77, eps=1e-05, momentum=0.1, affine=False, track_running_stats=True)
        (27): BatchNorm2d(80, eps=1e-05, momentum=0.1, affine=False, track_running_stats=True)
        (28): BatchNorm2d(82, eps=1e-05, momentum=0.1, affine=False, track_running_stats=True)
        (29): BatchNorm2d(85, eps=1e-05, momentum=0.1, affine=False, track_running_stats=True)
        (30): BatchNorm2d(88, eps=1e-05, momentum=0.1, affine=False, track_running_stats=True)
      )
    )
    (11): bottleneck(
      (fc11): Linear(in_features=3, out_features=64, bias=True)
      (fc12): Linear(in_features=64, out_features=46464, bias=True)
      (fc21): Linear(in_features=3, out_features=64, bias=True)
      (fc22): Linear(in_features=64, out_features=4752, bias=True)
      (fc31): Linear(in_features=3, out_features=64, bias=True)
      (fc32): Linear(in_features=64, out_features=69696, bias=True)
      (bn1): ModuleList(
        (0): BatchNorm2d(52, eps=1e-05, momentum=0.1, affine=False, track_running_stats=True)
        (1): BatchNorm2d(68, eps=1e-05, momentum=0.1, affine=False, track_running_stats=True)
        (2): BatchNorm2d(84, eps=1e-05, momentum=0.1, affine=False, track_running_stats=True)
        (3): BatchNorm2d(100, eps=1e-05, momentum=0.1, affine=False, track_running_stats=True)
        (4): BatchNorm2d(116, eps=1e-05, momentum=0.1, affine=False, track_running_stats=True)
        (5): BatchNorm2d(132, eps=1e-05, momentum=0.1, affine=False, track_running_stats=True)
        (6): BatchNorm2d(147, eps=1e-05, momentum=0.1, affine=False, track_running_stats=True)
        (7): BatchNorm2d(163, eps=1e-05, momentum=0.1, affine=False, track_running_stats=True)
        (8): BatchNorm2d(179, eps=1e-05, momentum=0.1, affine=False, track_running_stats=True)
        (9): BatchNorm2d(195, eps=1e-05, momentum=0.1, affine=False, track_running_stats=True)
        (10): BatchNorm2d(211, eps=1e-05, momentum=0.1, affine=False, track_running_stats=True)
        (11): BatchNorm2d(227, eps=1e-05, momentum=0.1, affine=False, track_running_stats=True)
        (12): BatchNorm2d(242, eps=1e-05, momentum=0.1, affine=False, track_running_stats=True)
        (13): BatchNorm2d(258, eps=1e-05, momentum=0.1, affine=False, track_running_stats=True)
        (14): BatchNorm2d(274, eps=1e-05, momentum=0.1, affine=False, track_running_stats=True)
        (15): BatchNorm2d(290, eps=1e-05, momentum=0.1, affine=False, track_running_stats=True)
        (16): BatchNorm2d(306, eps=1e-05, momentum=0.1, affine=False, track_running_stats=True)
        (17): BatchNorm2d(322, eps=1e-05, momentum=0.1, affine=False, track_running_stats=True)
        (18): BatchNorm2d(337, eps=1e-05, momentum=0.1, affine=False, track_running_stats=True)
        (19): BatchNorm2d(353, eps=1e-05, momentum=0.1, affine=False, track_running_stats=True)
        (20): BatchNorm2d(369, eps=1e-05, momentum=0.1, affine=False, track_running_stats=True)
        (21): BatchNorm2d(385, eps=1e-05, momentum=0.1, affine=False, track_running_stats=True)
        (22): BatchNorm2d(401, eps=1e-05, momentum=0.1, affine=False, track_running_stats=True)
        (23): BatchNorm2d(417, eps=1e-05, momentum=0.1, affine=False, track_running_stats=True)
        (24): BatchNorm2d(432, eps=1e-05, momentum=0.1, affine=False, track_running_stats=True)
        (25): BatchNorm2d(448, eps=1e-05, momentum=0.1, affine=False, track_running_stats=True)
        (26): BatchNorm2d(464, eps=1e-05, momentum=0.1, affine=False, track_running_stats=True)
        (27): BatchNorm2d(480, eps=1e-05, momentum=0.1, affine=False, track_running_stats=True)
        (28): BatchNorm2d(496, eps=1e-05, momentum=0.1, affine=False, track_running_stats=True)
        (29): BatchNorm2d(512, eps=1e-05, momentum=0.1, affine=False, track_running_stats=True)
        (30): BatchNorm2d(528, eps=1e-05, momentum=0.1, affine=False, track_running_stats=True)
      )
      (bn2): ModuleList(
        (0): BatchNorm2d(52, eps=1e-05, momentum=0.1, affine=False, track_running_stats=True)
        (1): BatchNorm2d(68, eps=1e-05, momentum=0.1, affine=False, track_running_stats=True)
        (2): BatchNorm2d(84, eps=1e-05, momentum=0.1, affine=False, track_running_stats=True)
        (3): BatchNorm2d(100, eps=1e-05, momentum=0.1, affine=False, track_running_stats=True)
        (4): BatchNorm2d(116, eps=1e-05, momentum=0.1, affine=False, track_running_stats=True)
        (5): BatchNorm2d(132, eps=1e-05, momentum=0.1, affine=False, track_running_stats=True)
        (6): BatchNorm2d(147, eps=1e-05, momentum=0.1, affine=False, track_running_stats=True)
        (7): BatchNorm2d(163, eps=1e-05, momentum=0.1, affine=False, track_running_stats=True)
        (8): BatchNorm2d(179, eps=1e-05, momentum=0.1, affine=False, track_running_stats=True)
        (9): BatchNorm2d(195, eps=1e-05, momentum=0.1, affine=False, track_running_stats=True)
        (10): BatchNorm2d(211, eps=1e-05, momentum=0.1, affine=False, track_running_stats=True)
        (11): BatchNorm2d(227, eps=1e-05, momentum=0.1, affine=False, track_running_stats=True)
        (12): BatchNorm2d(242, eps=1e-05, momentum=0.1, affine=False, track_running_stats=True)
        (13): BatchNorm2d(258, eps=1e-05, momentum=0.1, affine=False, track_running_stats=True)
        (14): BatchNorm2d(274, eps=1e-05, momentum=0.1, affine=False, track_running_stats=True)
        (15): BatchNorm2d(290, eps=1e-05, momentum=0.1, affine=False, track_running_stats=True)
        (16): BatchNorm2d(306, eps=1e-05, momentum=0.1, affine=False, track_running_stats=True)
        (17): BatchNorm2d(322, eps=1e-05, momentum=0.1, affine=False, track_running_stats=True)
        (18): BatchNorm2d(337, eps=1e-05, momentum=0.1, affine=False, track_running_stats=True)
        (19): BatchNorm2d(353, eps=1e-05, momentum=0.1, affine=False, track_running_stats=True)
        (20): BatchNorm2d(369, eps=1e-05, momentum=0.1, affine=False, track_running_stats=True)
        (21): BatchNorm2d(385, eps=1e-05, momentum=0.1, affine=False, track_running_stats=True)
        (22): BatchNorm2d(401, eps=1e-05, momentum=0.1, affine=False, track_running_stats=True)
        (23): BatchNorm2d(417, eps=1e-05, momentum=0.1, affine=False, track_running_stats=True)
        (24): BatchNorm2d(432, eps=1e-05, momentum=0.1, affine=False, track_running_stats=True)
        (25): BatchNorm2d(448, eps=1e-05, momentum=0.1, affine=False, track_running_stats=True)
        (26): BatchNorm2d(464, eps=1e-05, momentum=0.1, affine=False, track_running_stats=True)
        (27): BatchNorm2d(480, eps=1e-05, momentum=0.1, affine=False, track_running_stats=True)
        (28): BatchNorm2d(496, eps=1e-05, momentum=0.1, affine=False, track_running_stats=True)
        (29): BatchNorm2d(512, eps=1e-05, momentum=0.1, affine=False, track_running_stats=True)
        (30): BatchNorm2d(528, eps=1e-05, momentum=0.1, affine=False, track_running_stats=True)
      )
      (bn3): ModuleList(
        (0): BatchNorm2d(13, eps=1e-05, momentum=0.1, affine=False, track_running_stats=True)
        (1): BatchNorm2d(17, eps=1e-05, momentum=0.1, affine=False, track_running_stats=True)
        (2): BatchNorm2d(21, eps=1e-05, momentum=0.1, affine=False, track_running_stats=True)
        (3): BatchNorm2d(25, eps=1e-05, momentum=0.1, affine=False, track_running_stats=True)
        (4): BatchNorm2d(29, eps=1e-05, momentum=0.1, affine=False, track_running_stats=True)
        (5): BatchNorm2d(33, eps=1e-05, momentum=0.1, affine=False, track_running_stats=True)
        (6): BatchNorm2d(36, eps=1e-05, momentum=0.1, affine=False, track_running_stats=True)
        (7): BatchNorm2d(40, eps=1e-05, momentum=0.1, affine=False, track_running_stats=True)
        (8): BatchNorm2d(44, eps=1e-05, momentum=0.1, affine=False, track_running_stats=True)
        (9): BatchNorm2d(48, eps=1e-05, momentum=0.1, affine=False, track_running_stats=True)
        (10): BatchNorm2d(52, eps=1e-05, momentum=0.1, affine=False, track_running_stats=True)
        (11): BatchNorm2d(56, eps=1e-05, momentum=0.1, affine=False, track_running_stats=True)
        (12): BatchNorm2d(60, eps=1e-05, momentum=0.1, affine=False, track_running_stats=True)
        (13): BatchNorm2d(64, eps=1e-05, momentum=0.1, affine=False, track_running_stats=True)
        (14): BatchNorm2d(68, eps=1e-05, momentum=0.1, affine=False, track_running_stats=True)
        (15): BatchNorm2d(72, eps=1e-05, momentum=0.1, affine=False, track_running_stats=True)
        (16): BatchNorm2d(76, eps=1e-05, momentum=0.1, affine=False, track_running_stats=True)
        (17): BatchNorm2d(80, eps=1e-05, momentum=0.1, affine=False, track_running_stats=True)
        (18): BatchNorm2d(84, eps=1e-05, momentum=0.1, affine=False, track_running_stats=True)
        (19): BatchNorm2d(88, eps=1e-05, momentum=0.1, affine=False, track_running_stats=True)
        (20): BatchNorm2d(92, eps=1e-05, momentum=0.1, affine=False, track_running_stats=True)
        (21): BatchNorm2d(96, eps=1e-05, momentum=0.1, affine=False, track_running_stats=True)
        (22): BatchNorm2d(100, eps=1e-05, momentum=0.1, affine=False, track_running_stats=True)
        (23): BatchNorm2d(104, eps=1e-05, momentum=0.1, affine=False, track_running_stats=True)
        (24): BatchNorm2d(108, eps=1e-05, momentum=0.1, affine=False, track_running_stats=True)
        (25): BatchNorm2d(112, eps=1e-05, momentum=0.1, affine=False, track_running_stats=True)
        (26): BatchNorm2d(116, eps=1e-05, momentum=0.1, affine=False, track_running_stats=True)
        (27): BatchNorm2d(120, eps=1e-05, momentum=0.1, affine=False, track_running_stats=True)
        (28): BatchNorm2d(124, eps=1e-05, momentum=0.1, affine=False, track_running_stats=True)
        (29): BatchNorm2d(128, eps=1e-05, momentum=0.1, affine=False, track_running_stats=True)
        (30): BatchNorm2d(132, eps=1e-05, momentum=0.1, affine=False, track_running_stats=True)
      )
    )
    (12): bottleneck(
      (fc11): Linear(in_features=3, out_features=64, bias=True)
      (fc12): Linear(in_features=64, out_features=104544, bias=True)
      (fc21): Linear(in_features=3, out_features=64, bias=True)
      (fc22): Linear(in_features=64, out_features=7128, bias=True)
      (fc31): Linear(in_features=3, out_features=64, bias=True)
      (fc32): Linear(in_features=64, out_features=104544, bias=True)
      (bn1): ModuleList(
        (0): BatchNorm2d(79, eps=1e-05, momentum=0.1, affine=False, track_running_stats=True)
        (1): BatchNorm2d(102, eps=1e-05, momentum=0.1, affine=False, track_running_stats=True)
        (2): BatchNorm2d(126, eps=1e-05, momentum=0.1, affine=False, track_running_stats=True)
        (3): BatchNorm2d(150, eps=1e-05, momentum=0.1, affine=False, track_running_stats=True)
        (4): BatchNorm2d(174, eps=1e-05, momentum=0.1, affine=False, track_running_stats=True)
        (5): BatchNorm2d(198, eps=1e-05, momentum=0.1, affine=False, track_running_stats=True)
        (6): BatchNorm2d(221, eps=1e-05, momentum=0.1, affine=False, track_running_stats=True)
        (7): BatchNorm2d(245, eps=1e-05, momentum=0.1, affine=False, track_running_stats=True)
        (8): BatchNorm2d(269, eps=1e-05, momentum=0.1, affine=False, track_running_stats=True)
        (9): BatchNorm2d(293, eps=1e-05, momentum=0.1, affine=False, track_running_stats=True)
        (10): BatchNorm2d(316, eps=1e-05, momentum=0.1, affine=False, track_running_stats=True)
        (11): BatchNorm2d(340, eps=1e-05, momentum=0.1, affine=False, track_running_stats=True)
        (12): BatchNorm2d(364, eps=1e-05, momentum=0.1, affine=False, track_running_stats=True)
        (13): BatchNorm2d(388, eps=1e-05, momentum=0.1, affine=False, track_running_stats=True)
        (14): BatchNorm2d(411, eps=1e-05, momentum=0.1, affine=False, track_running_stats=True)
        (15): BatchNorm2d(435, eps=1e-05, momentum=0.1, affine=False, track_running_stats=True)
        (16): BatchNorm2d(459, eps=1e-05, momentum=0.1, affine=False, track_running_stats=True)
        (17): BatchNorm2d(483, eps=1e-05, momentum=0.1, affine=False, track_running_stats=True)
        (18): BatchNorm2d(506, eps=1e-05, momentum=0.1, affine=False, track_running_stats=True)
        (19): BatchNorm2d(530, eps=1e-05, momentum=0.1, affine=False, track_running_stats=True)
        (20): BatchNorm2d(554, eps=1e-05, momentum=0.1, affine=False, track_running_stats=True)
        (21): BatchNorm2d(578, eps=1e-05, momentum=0.1, affine=False, track_running_stats=True)
        (22): BatchNorm2d(601, eps=1e-05, momentum=0.1, affine=False, track_running_stats=True)
        (23): BatchNorm2d(625, eps=1e-05, momentum=0.1, affine=False, track_running_stats=True)
        (24): BatchNorm2d(649, eps=1e-05, momentum=0.1, affine=False, track_running_stats=True)
        (25): BatchNorm2d(673, eps=1e-05, momentum=0.1, affine=False, track_running_stats=True)
        (26): BatchNorm2d(696, eps=1e-05, momentum=0.1, affine=False, track_running_stats=True)
        (27): BatchNorm2d(720, eps=1e-05, momentum=0.1, affine=False, track_running_stats=True)
        (28): BatchNorm2d(744, eps=1e-05, momentum=0.1, affine=False, track_running_stats=True)
        (29): BatchNorm2d(768, eps=1e-05, momentum=0.1, affine=False, track_running_stats=True)
        (30): BatchNorm2d(792, eps=1e-05, momentum=0.1, affine=False, track_running_stats=True)
      )
      (bn2): ModuleList(
        (0): BatchNorm2d(79, eps=1e-05, momentum=0.1, affine=False, track_running_stats=True)
        (1): BatchNorm2d(102, eps=1e-05, momentum=0.1, affine=False, track_running_stats=True)
        (2): BatchNorm2d(126, eps=1e-05, momentum=0.1, affine=False, track_running_stats=True)
        (3): BatchNorm2d(150, eps=1e-05, momentum=0.1, affine=False, track_running_stats=True)
        (4): BatchNorm2d(174, eps=1e-05, momentum=0.1, affine=False, track_running_stats=True)
        (5): BatchNorm2d(198, eps=1e-05, momentum=0.1, affine=False, track_running_stats=True)
        (6): BatchNorm2d(221, eps=1e-05, momentum=0.1, affine=False, track_running_stats=True)
        (7): BatchNorm2d(245, eps=1e-05, momentum=0.1, affine=False, track_running_stats=True)
        (8): BatchNorm2d(269, eps=1e-05, momentum=0.1, affine=False, track_running_stats=True)
        (9): BatchNorm2d(293, eps=1e-05, momentum=0.1, affine=False, track_running_stats=True)
        (10): BatchNorm2d(316, eps=1e-05, momentum=0.1, affine=False, track_running_stats=True)
        (11): BatchNorm2d(340, eps=1e-05, momentum=0.1, affine=False, track_running_stats=True)
        (12): BatchNorm2d(364, eps=1e-05, momentum=0.1, affine=False, track_running_stats=True)
        (13): BatchNorm2d(388, eps=1e-05, momentum=0.1, affine=False, track_running_stats=True)
        (14): BatchNorm2d(411, eps=1e-05, momentum=0.1, affine=False, track_running_stats=True)
        (15): BatchNorm2d(435, eps=1e-05, momentum=0.1, affine=False, track_running_stats=True)
        (16): BatchNorm2d(459, eps=1e-05, momentum=0.1, affine=False, track_running_stats=True)
        (17): BatchNorm2d(483, eps=1e-05, momentum=0.1, affine=False, track_running_stats=True)
        (18): BatchNorm2d(506, eps=1e-05, momentum=0.1, affine=False, track_running_stats=True)
        (19): BatchNorm2d(530, eps=1e-05, momentum=0.1, affine=False, track_running_stats=True)
        (20): BatchNorm2d(554, eps=1e-05, momentum=0.1, affine=False, track_running_stats=True)
        (21): BatchNorm2d(578, eps=1e-05, momentum=0.1, affine=False, track_running_stats=True)
        (22): BatchNorm2d(601, eps=1e-05, momentum=0.1, affine=False, track_running_stats=True)
        (23): BatchNorm2d(625, eps=1e-05, momentum=0.1, affine=False, track_running_stats=True)
        (24): BatchNorm2d(649, eps=1e-05, momentum=0.1, affine=False, track_running_stats=True)
        (25): BatchNorm2d(673, eps=1e-05, momentum=0.1, affine=False, track_running_stats=True)
        (26): BatchNorm2d(696, eps=1e-05, momentum=0.1, affine=False, track_running_stats=True)
        (27): BatchNorm2d(720, eps=1e-05, momentum=0.1, affine=False, track_running_stats=True)
        (28): BatchNorm2d(744, eps=1e-05, momentum=0.1, affine=False, track_running_stats=True)
        (29): BatchNorm2d(768, eps=1e-05, momentum=0.1, affine=False, track_running_stats=True)
        (30): BatchNorm2d(792, eps=1e-05, momentum=0.1, affine=False, track_running_stats=True)
      )
      (bn3): ModuleList(
        (0): BatchNorm2d(13, eps=1e-05, momentum=0.1, affine=False, track_running_stats=True)
        (1): BatchNorm2d(17, eps=1e-05, momentum=0.1, affine=False, track_running_stats=True)
        (2): BatchNorm2d(21, eps=1e-05, momentum=0.1, affine=False, track_running_stats=True)
        (3): BatchNorm2d(25, eps=1e-05, momentum=0.1, affine=False, track_running_stats=True)
        (4): BatchNorm2d(29, eps=1e-05, momentum=0.1, affine=False, track_running_stats=True)
        (5): BatchNorm2d(33, eps=1e-05, momentum=0.1, affine=False, track_running_stats=True)
        (6): BatchNorm2d(36, eps=1e-05, momentum=0.1, affine=False, track_running_stats=True)
        (7): BatchNorm2d(40, eps=1e-05, momentum=0.1, affine=False, track_running_stats=True)
        (8): BatchNorm2d(44, eps=1e-05, momentum=0.1, affine=False, track_running_stats=True)
        (9): BatchNorm2d(48, eps=1e-05, momentum=0.1, affine=False, track_running_stats=True)
        (10): BatchNorm2d(52, eps=1e-05, momentum=0.1, affine=False, track_running_stats=True)
        (11): BatchNorm2d(56, eps=1e-05, momentum=0.1, affine=False, track_running_stats=True)
        (12): BatchNorm2d(60, eps=1e-05, momentum=0.1, affine=False, track_running_stats=True)
        (13): BatchNorm2d(64, eps=1e-05, momentum=0.1, affine=False, track_running_stats=True)
        (14): BatchNorm2d(68, eps=1e-05, momentum=0.1, affine=False, track_running_stats=True)
        (15): BatchNorm2d(72, eps=1e-05, momentum=0.1, affine=False, track_running_stats=True)
        (16): BatchNorm2d(76, eps=1e-05, momentum=0.1, affine=False, track_running_stats=True)
        (17): BatchNorm2d(80, eps=1e-05, momentum=0.1, affine=False, track_running_stats=True)
        (18): BatchNorm2d(84, eps=1e-05, momentum=0.1, affine=False, track_running_stats=True)
        (19): BatchNorm2d(88, eps=1e-05, momentum=0.1, affine=False, track_running_stats=True)
        (20): BatchNorm2d(92, eps=1e-05, momentum=0.1, affine=False, track_running_stats=True)
        (21): BatchNorm2d(96, eps=1e-05, momentum=0.1, affine=False, track_running_stats=True)
        (22): BatchNorm2d(100, eps=1e-05, momentum=0.1, affine=False, track_running_stats=True)
        (23): BatchNorm2d(104, eps=1e-05, momentum=0.1, affine=False, track_running_stats=True)
        (24): BatchNorm2d(108, eps=1e-05, momentum=0.1, affine=False, track_running_stats=True)
        (25): BatchNorm2d(112, eps=1e-05, momentum=0.1, affine=False, track_running_stats=True)
        (26): BatchNorm2d(116, eps=1e-05, momentum=0.1, affine=False, track_running_stats=True)
        (27): BatchNorm2d(120, eps=1e-05, momentum=0.1, affine=False, track_running_stats=True)
        (28): BatchNorm2d(124, eps=1e-05, momentum=0.1, affine=False, track_running_stats=True)
        (29): BatchNorm2d(128, eps=1e-05, momentum=0.1, affine=False, track_running_stats=True)
        (30): BatchNorm2d(132, eps=1e-05, momentum=0.1, affine=False, track_running_stats=True)
      )
    )
    (13): bottleneck(
      (fc11): Linear(in_features=3, out_features=64, bias=True)
      (fc12): Linear(in_features=64, out_features=104544, bias=True)
      (fc21): Linear(in_features=3, out_features=64, bias=True)
      (fc22): Linear(in_features=64, out_features=7128, bias=True)
      (fc31): Linear(in_features=3, out_features=64, bias=True)
      (fc32): Linear(in_features=64, out_features=104544, bias=True)
      (bn1): ModuleList(
        (0): BatchNorm2d(79, eps=1e-05, momentum=0.1, affine=False, track_running_stats=True)
        (1): BatchNorm2d(102, eps=1e-05, momentum=0.1, affine=False, track_running_stats=True)
        (2): BatchNorm2d(126, eps=1e-05, momentum=0.1, affine=False, track_running_stats=True)
        (3): BatchNorm2d(150, eps=1e-05, momentum=0.1, affine=False, track_running_stats=True)
        (4): BatchNorm2d(174, eps=1e-05, momentum=0.1, affine=False, track_running_stats=True)
        (5): BatchNorm2d(198, eps=1e-05, momentum=0.1, affine=False, track_running_stats=True)
        (6): BatchNorm2d(221, eps=1e-05, momentum=0.1, affine=False, track_running_stats=True)
        (7): BatchNorm2d(245, eps=1e-05, momentum=0.1, affine=False, track_running_stats=True)
        (8): BatchNorm2d(269, eps=1e-05, momentum=0.1, affine=False, track_running_stats=True)
        (9): BatchNorm2d(293, eps=1e-05, momentum=0.1, affine=False, track_running_stats=True)
        (10): BatchNorm2d(316, eps=1e-05, momentum=0.1, affine=False, track_running_stats=True)
        (11): BatchNorm2d(340, eps=1e-05, momentum=0.1, affine=False, track_running_stats=True)
        (12): BatchNorm2d(364, eps=1e-05, momentum=0.1, affine=False, track_running_stats=True)
        (13): BatchNorm2d(388, eps=1e-05, momentum=0.1, affine=False, track_running_stats=True)
        (14): BatchNorm2d(411, eps=1e-05, momentum=0.1, affine=False, track_running_stats=True)
        (15): BatchNorm2d(435, eps=1e-05, momentum=0.1, affine=False, track_running_stats=True)
        (16): BatchNorm2d(459, eps=1e-05, momentum=0.1, affine=False, track_running_stats=True)
        (17): BatchNorm2d(483, eps=1e-05, momentum=0.1, affine=False, track_running_stats=True)
        (18): BatchNorm2d(506, eps=1e-05, momentum=0.1, affine=False, track_running_stats=True)
        (19): BatchNorm2d(530, eps=1e-05, momentum=0.1, affine=False, track_running_stats=True)
        (20): BatchNorm2d(554, eps=1e-05, momentum=0.1, affine=False, track_running_stats=True)
        (21): BatchNorm2d(578, eps=1e-05, momentum=0.1, affine=False, track_running_stats=True)
        (22): BatchNorm2d(601, eps=1e-05, momentum=0.1, affine=False, track_running_stats=True)
        (23): BatchNorm2d(625, eps=1e-05, momentum=0.1, affine=False, track_running_stats=True)
        (24): BatchNorm2d(649, eps=1e-05, momentum=0.1, affine=False, track_running_stats=True)
        (25): BatchNorm2d(673, eps=1e-05, momentum=0.1, affine=False, track_running_stats=True)
        (26): BatchNorm2d(696, eps=1e-05, momentum=0.1, affine=False, track_running_stats=True)
        (27): BatchNorm2d(720, eps=1e-05, momentum=0.1, affine=False, track_running_stats=True)
        (28): BatchNorm2d(744, eps=1e-05, momentum=0.1, affine=False, track_running_stats=True)
        (29): BatchNorm2d(768, eps=1e-05, momentum=0.1, affine=False, track_running_stats=True)
        (30): BatchNorm2d(792, eps=1e-05, momentum=0.1, affine=False, track_running_stats=True)
      )
      (bn2): ModuleList(
        (0): BatchNorm2d(79, eps=1e-05, momentum=0.1, affine=False, track_running_stats=True)
        (1): BatchNorm2d(102, eps=1e-05, momentum=0.1, affine=False, track_running_stats=True)
        (2): BatchNorm2d(126, eps=1e-05, momentum=0.1, affine=False, track_running_stats=True)
        (3): BatchNorm2d(150, eps=1e-05, momentum=0.1, affine=False, track_running_stats=True)
        (4): BatchNorm2d(174, eps=1e-05, momentum=0.1, affine=False, track_running_stats=True)
        (5): BatchNorm2d(198, eps=1e-05, momentum=0.1, affine=False, track_running_stats=True)
        (6): BatchNorm2d(221, eps=1e-05, momentum=0.1, affine=False, track_running_stats=True)
        (7): BatchNorm2d(245, eps=1e-05, momentum=0.1, affine=False, track_running_stats=True)
        (8): BatchNorm2d(269, eps=1e-05, momentum=0.1, affine=False, track_running_stats=True)
        (9): BatchNorm2d(293, eps=1e-05, momentum=0.1, affine=False, track_running_stats=True)
        (10): BatchNorm2d(316, eps=1e-05, momentum=0.1, affine=False, track_running_stats=True)
        (11): BatchNorm2d(340, eps=1e-05, momentum=0.1, affine=False, track_running_stats=True)
        (12): BatchNorm2d(364, eps=1e-05, momentum=0.1, affine=False, track_running_stats=True)
        (13): BatchNorm2d(388, eps=1e-05, momentum=0.1, affine=False, track_running_stats=True)
        (14): BatchNorm2d(411, eps=1e-05, momentum=0.1, affine=False, track_running_stats=True)
        (15): BatchNorm2d(435, eps=1e-05, momentum=0.1, affine=False, track_running_stats=True)
        (16): BatchNorm2d(459, eps=1e-05, momentum=0.1, affine=False, track_running_stats=True)
        (17): BatchNorm2d(483, eps=1e-05, momentum=0.1, affine=False, track_running_stats=True)
        (18): BatchNorm2d(506, eps=1e-05, momentum=0.1, affine=False, track_running_stats=True)
        (19): BatchNorm2d(530, eps=1e-05, momentum=0.1, affine=False, track_running_stats=True)
        (20): BatchNorm2d(554, eps=1e-05, momentum=0.1, affine=False, track_running_stats=True)
        (21): BatchNorm2d(578, eps=1e-05, momentum=0.1, affine=False, track_running_stats=True)
        (22): BatchNorm2d(601, eps=1e-05, momentum=0.1, affine=False, track_running_stats=True)
        (23): BatchNorm2d(625, eps=1e-05, momentum=0.1, affine=False, track_running_stats=True)
        (24): BatchNorm2d(649, eps=1e-05, momentum=0.1, affine=False, track_running_stats=True)
        (25): BatchNorm2d(673, eps=1e-05, momentum=0.1, affine=False, track_running_stats=True)
        (26): BatchNorm2d(696, eps=1e-05, momentum=0.1, affine=False, track_running_stats=True)
        (27): BatchNorm2d(720, eps=1e-05, momentum=0.1, affine=False, track_running_stats=True)
        (28): BatchNorm2d(744, eps=1e-05, momentum=0.1, affine=False, track_running_stats=True)
        (29): BatchNorm2d(768, eps=1e-05, momentum=0.1, affine=False, track_running_stats=True)
        (30): BatchNorm2d(792, eps=1e-05, momentum=0.1, affine=False, track_running_stats=True)
      )
      (bn3): ModuleList(
        (0): BatchNorm2d(13, eps=1e-05, momentum=0.1, affine=False, track_running_stats=True)
        (1): BatchNorm2d(17, eps=1e-05, momentum=0.1, affine=False, track_running_stats=True)
        (2): BatchNorm2d(21, eps=1e-05, momentum=0.1, affine=False, track_running_stats=True)
        (3): BatchNorm2d(25, eps=1e-05, momentum=0.1, affine=False, track_running_stats=True)
        (4): BatchNorm2d(29, eps=1e-05, momentum=0.1, affine=False, track_running_stats=True)
        (5): BatchNorm2d(33, eps=1e-05, momentum=0.1, affine=False, track_running_stats=True)
        (6): BatchNorm2d(36, eps=1e-05, momentum=0.1, affine=False, track_running_stats=True)
        (7): BatchNorm2d(40, eps=1e-05, momentum=0.1, affine=False, track_running_stats=True)
        (8): BatchNorm2d(44, eps=1e-05, momentum=0.1, affine=False, track_running_stats=True)
        (9): BatchNorm2d(48, eps=1e-05, momentum=0.1, affine=False, track_running_stats=True)
        (10): BatchNorm2d(52, eps=1e-05, momentum=0.1, affine=False, track_running_stats=True)
        (11): BatchNorm2d(56, eps=1e-05, momentum=0.1, affine=False, track_running_stats=True)
        (12): BatchNorm2d(60, eps=1e-05, momentum=0.1, affine=False, track_running_stats=True)
        (13): BatchNorm2d(64, eps=1e-05, momentum=0.1, affine=False, track_running_stats=True)
        (14): BatchNorm2d(68, eps=1e-05, momentum=0.1, affine=False, track_running_stats=True)
        (15): BatchNorm2d(72, eps=1e-05, momentum=0.1, affine=False, track_running_stats=True)
        (16): BatchNorm2d(76, eps=1e-05, momentum=0.1, affine=False, track_running_stats=True)
        (17): BatchNorm2d(80, eps=1e-05, momentum=0.1, affine=False, track_running_stats=True)
        (18): BatchNorm2d(84, eps=1e-05, momentum=0.1, affine=False, track_running_stats=True)
        (19): BatchNorm2d(88, eps=1e-05, momentum=0.1, affine=False, track_running_stats=True)
        (20): BatchNorm2d(92, eps=1e-05, momentum=0.1, affine=False, track_running_stats=True)
        (21): BatchNorm2d(96, eps=1e-05, momentum=0.1, affine=False, track_running_stats=True)
        (22): BatchNorm2d(100, eps=1e-05, momentum=0.1, affine=False, track_running_stats=True)
        (23): BatchNorm2d(104, eps=1e-05, momentum=0.1, affine=False, track_running_stats=True)
        (24): BatchNorm2d(108, eps=1e-05, momentum=0.1, affine=False, track_running_stats=True)
        (25): BatchNorm2d(112, eps=1e-05, momentum=0.1, affine=False, track_running_stats=True)
        (26): BatchNorm2d(116, eps=1e-05, momentum=0.1, affine=False, track_running_stats=True)
        (27): BatchNorm2d(120, eps=1e-05, momentum=0.1, affine=False, track_running_stats=True)
        (28): BatchNorm2d(124, eps=1e-05, momentum=0.1, affine=False, track_running_stats=True)
        (29): BatchNorm2d(128, eps=1e-05, momentum=0.1, affine=False, track_running_stats=True)
        (30): BatchNorm2d(132, eps=1e-05, momentum=0.1, affine=False, track_running_stats=True)
      )
    )
    (14): bottleneck(
      (fc11): Linear(in_features=3, out_features=64, bias=True)
      (fc12): Linear(in_features=64, out_features=104544, bias=True)
      (fc21): Linear(in_features=3, out_features=64, bias=True)
      (fc22): Linear(in_features=64, out_features=7128, bias=True)
      (fc31): Linear(in_features=3, out_features=64, bias=True)
      (fc32): Linear(in_features=64, out_features=177408, bias=True)
      (bn1): ModuleList(
        (0): BatchNorm2d(79, eps=1e-05, momentum=0.1, affine=False, track_running_stats=True)
        (1): BatchNorm2d(102, eps=1e-05, momentum=0.1, affine=False, track_running_stats=True)
        (2): BatchNorm2d(126, eps=1e-05, momentum=0.1, affine=False, track_running_stats=True)
        (3): BatchNorm2d(150, eps=1e-05, momentum=0.1, affine=False, track_running_stats=True)
        (4): BatchNorm2d(174, eps=1e-05, momentum=0.1, affine=False, track_running_stats=True)
        (5): BatchNorm2d(198, eps=1e-05, momentum=0.1, affine=False, track_running_stats=True)
        (6): BatchNorm2d(221, eps=1e-05, momentum=0.1, affine=False, track_running_stats=True)
        (7): BatchNorm2d(245, eps=1e-05, momentum=0.1, affine=False, track_running_stats=True)
        (8): BatchNorm2d(269, eps=1e-05, momentum=0.1, affine=False, track_running_stats=True)
        (9): BatchNorm2d(293, eps=1e-05, momentum=0.1, affine=False, track_running_stats=True)
        (10): BatchNorm2d(316, eps=1e-05, momentum=0.1, affine=False, track_running_stats=True)
        (11): BatchNorm2d(340, eps=1e-05, momentum=0.1, affine=False, track_running_stats=True)
        (12): BatchNorm2d(364, eps=1e-05, momentum=0.1, affine=False, track_running_stats=True)
        (13): BatchNorm2d(388, eps=1e-05, momentum=0.1, affine=False, track_running_stats=True)
        (14): BatchNorm2d(411, eps=1e-05, momentum=0.1, affine=False, track_running_stats=True)
        (15): BatchNorm2d(435, eps=1e-05, momentum=0.1, affine=False, track_running_stats=True)
        (16): BatchNorm2d(459, eps=1e-05, momentum=0.1, affine=False, track_running_stats=True)
        (17): BatchNorm2d(483, eps=1e-05, momentum=0.1, affine=False, track_running_stats=True)
        (18): BatchNorm2d(506, eps=1e-05, momentum=0.1, affine=False, track_running_stats=True)
        (19): BatchNorm2d(530, eps=1e-05, momentum=0.1, affine=False, track_running_stats=True)
        (20): BatchNorm2d(554, eps=1e-05, momentum=0.1, affine=False, track_running_stats=True)
        (21): BatchNorm2d(578, eps=1e-05, momentum=0.1, affine=False, track_running_stats=True)
        (22): BatchNorm2d(601, eps=1e-05, momentum=0.1, affine=False, track_running_stats=True)
        (23): BatchNorm2d(625, eps=1e-05, momentum=0.1, affine=False, track_running_stats=True)
        (24): BatchNorm2d(649, eps=1e-05, momentum=0.1, affine=False, track_running_stats=True)
        (25): BatchNorm2d(673, eps=1e-05, momentum=0.1, affine=False, track_running_stats=True)
        (26): BatchNorm2d(696, eps=1e-05, momentum=0.1, affine=False, track_running_stats=True)
        (27): BatchNorm2d(720, eps=1e-05, momentum=0.1, affine=False, track_running_stats=True)
        (28): BatchNorm2d(744, eps=1e-05, momentum=0.1, affine=False, track_running_stats=True)
        (29): BatchNorm2d(768, eps=1e-05, momentum=0.1, affine=False, track_running_stats=True)
        (30): BatchNorm2d(792, eps=1e-05, momentum=0.1, affine=False, track_running_stats=True)
      )
      (bn2): ModuleList(
        (0): BatchNorm2d(79, eps=1e-05, momentum=0.1, affine=False, track_running_stats=True)
        (1): BatchNorm2d(102, eps=1e-05, momentum=0.1, affine=False, track_running_stats=True)
        (2): BatchNorm2d(126, eps=1e-05, momentum=0.1, affine=False, track_running_stats=True)
        (3): BatchNorm2d(150, eps=1e-05, momentum=0.1, affine=False, track_running_stats=True)
        (4): BatchNorm2d(174, eps=1e-05, momentum=0.1, affine=False, track_running_stats=True)
        (5): BatchNorm2d(198, eps=1e-05, momentum=0.1, affine=False, track_running_stats=True)
        (6): BatchNorm2d(221, eps=1e-05, momentum=0.1, affine=False, track_running_stats=True)
        (7): BatchNorm2d(245, eps=1e-05, momentum=0.1, affine=False, track_running_stats=True)
        (8): BatchNorm2d(269, eps=1e-05, momentum=0.1, affine=False, track_running_stats=True)
        (9): BatchNorm2d(293, eps=1e-05, momentum=0.1, affine=False, track_running_stats=True)
        (10): BatchNorm2d(316, eps=1e-05, momentum=0.1, affine=False, track_running_stats=True)
        (11): BatchNorm2d(340, eps=1e-05, momentum=0.1, affine=False, track_running_stats=True)
        (12): BatchNorm2d(364, eps=1e-05, momentum=0.1, affine=False, track_running_stats=True)
        (13): BatchNorm2d(388, eps=1e-05, momentum=0.1, affine=False, track_running_stats=True)
        (14): BatchNorm2d(411, eps=1e-05, momentum=0.1, affine=False, track_running_stats=True)
        (15): BatchNorm2d(435, eps=1e-05, momentum=0.1, affine=False, track_running_stats=True)
        (16): BatchNorm2d(459, eps=1e-05, momentum=0.1, affine=False, track_running_stats=True)
        (17): BatchNorm2d(483, eps=1e-05, momentum=0.1, affine=False, track_running_stats=True)
        (18): BatchNorm2d(506, eps=1e-05, momentum=0.1, affine=False, track_running_stats=True)
        (19): BatchNorm2d(530, eps=1e-05, momentum=0.1, affine=False, track_running_stats=True)
        (20): BatchNorm2d(554, eps=1e-05, momentum=0.1, affine=False, track_running_stats=True)
        (21): BatchNorm2d(578, eps=1e-05, momentum=0.1, affine=False, track_running_stats=True)
        (22): BatchNorm2d(601, eps=1e-05, momentum=0.1, affine=False, track_running_stats=True)
        (23): BatchNorm2d(625, eps=1e-05, momentum=0.1, affine=False, track_running_stats=True)
        (24): BatchNorm2d(649, eps=1e-05, momentum=0.1, affine=False, track_running_stats=True)
        (25): BatchNorm2d(673, eps=1e-05, momentum=0.1, affine=False, track_running_stats=True)
        (26): BatchNorm2d(696, eps=1e-05, momentum=0.1, affine=False, track_running_stats=True)
        (27): BatchNorm2d(720, eps=1e-05, momentum=0.1, affine=False, track_running_stats=True)
        (28): BatchNorm2d(744, eps=1e-05, momentum=0.1, affine=False, track_running_stats=True)
        (29): BatchNorm2d(768, eps=1e-05, momentum=0.1, affine=False, track_running_stats=True)
        (30): BatchNorm2d(792, eps=1e-05, momentum=0.1, affine=False, track_running_stats=True)
      )
      (bn3): ModuleList(
        (0): BatchNorm2d(22, eps=1e-05, momentum=0.1, affine=False, track_running_stats=True)
        (1): BatchNorm2d(29, eps=1e-05, momentum=0.1, affine=False, track_running_stats=True)
        (2): BatchNorm2d(35, eps=1e-05, momentum=0.1, affine=False, track_running_stats=True)
        (3): BatchNorm2d(42, eps=1e-05, momentum=0.1, affine=False, track_running_stats=True)
        (4): BatchNorm2d(49, eps=1e-05, momentum=0.1, affine=False, track_running_stats=True)
        (5): BatchNorm2d(56, eps=1e-05, momentum=0.1, affine=False, track_running_stats=True)
        (6): BatchNorm2d(62, eps=1e-05, momentum=0.1, affine=False, track_running_stats=True)
        (7): BatchNorm2d(69, eps=1e-05, momentum=0.1, affine=False, track_running_stats=True)
        (8): BatchNorm2d(76, eps=1e-05, momentum=0.1, affine=False, track_running_stats=True)
        (9): BatchNorm2d(82, eps=1e-05, momentum=0.1, affine=False, track_running_stats=True)
        (10): BatchNorm2d(89, eps=1e-05, momentum=0.1, affine=False, track_running_stats=True)
        (11): BatchNorm2d(96, eps=1e-05, momentum=0.1, affine=False, track_running_stats=True)
        (12): BatchNorm2d(103, eps=1e-05, momentum=0.1, affine=False, track_running_stats=True)
        (13): BatchNorm2d(109, eps=1e-05, momentum=0.1, affine=False, track_running_stats=True)
        (14): BatchNorm2d(116, eps=1e-05, momentum=0.1, affine=False, track_running_stats=True)
        (15): BatchNorm2d(123, eps=1e-05, momentum=0.1, affine=False, track_running_stats=True)
        (16): BatchNorm2d(129, eps=1e-05, momentum=0.1, affine=False, track_running_stats=True)
        (17): BatchNorm2d(136, eps=1e-05, momentum=0.1, affine=False, track_running_stats=True)
        (18): BatchNorm2d(143, eps=1e-05, momentum=0.1, affine=False, track_running_stats=True)
        (19): BatchNorm2d(150, eps=1e-05, momentum=0.1, affine=False, track_running_stats=True)
        (20): BatchNorm2d(156, eps=1e-05, momentum=0.1, affine=False, track_running_stats=True)
        (21): BatchNorm2d(163, eps=1e-05, momentum=0.1, affine=False, track_running_stats=True)
        (22): BatchNorm2d(170, eps=1e-05, momentum=0.1, affine=False, track_running_stats=True)
        (23): BatchNorm2d(176, eps=1e-05, momentum=0.1, affine=False, track_running_stats=True)
        (24): BatchNorm2d(183, eps=1e-05, momentum=0.1, affine=False, track_running_stats=True)
        (25): BatchNorm2d(190, eps=1e-05, momentum=0.1, affine=False, track_running_stats=True)
        (26): BatchNorm2d(197, eps=1e-05, momentum=0.1, affine=False, track_running_stats=True)
        (27): BatchNorm2d(203, eps=1e-05, momentum=0.1, affine=False, track_running_stats=True)
        (28): BatchNorm2d(210, eps=1e-05, momentum=0.1, affine=False, track_running_stats=True)
        (29): BatchNorm2d(217, eps=1e-05, momentum=0.1, affine=False, track_running_stats=True)
        (30): BatchNorm2d(224, eps=1e-05, momentum=0.1, affine=False, track_running_stats=True)
      )
    )
    (15): bottleneck(
      (fc11): Linear(in_features=3, out_features=64, bias=True)
      (fc12): Linear(in_features=64, out_features=301056, bias=True)
      (fc21): Linear(in_features=3, out_features=64, bias=True)
      (fc22): Linear(in_features=64, out_features=12096, bias=True)
      (fc31): Linear(in_features=3, out_features=64, bias=True)
      (fc32): Linear(in_features=64, out_features=301056, bias=True)
      (bn1): ModuleList(
        (0): BatchNorm2d(134, eps=1e-05, momentum=0.1, affine=False, track_running_stats=True)
        (1): BatchNorm2d(174, eps=1e-05, momentum=0.1, affine=False, track_running_stats=True)
        (2): BatchNorm2d(215, eps=1e-05, momentum=0.1, affine=False, track_running_stats=True)
        (3): BatchNorm2d(255, eps=1e-05, momentum=0.1, affine=False, track_running_stats=True)
        (4): BatchNorm2d(295, eps=1e-05, momentum=0.1, affine=False, track_running_stats=True)
        (5): BatchNorm2d(336, eps=1e-05, momentum=0.1, affine=False, track_running_stats=True)
        (6): BatchNorm2d(376, eps=1e-05, momentum=0.1, affine=False, track_running_stats=True)
        (7): BatchNorm2d(416, eps=1e-05, momentum=0.1, affine=False, track_running_stats=True)
        (8): BatchNorm2d(456, eps=1e-05, momentum=0.1, affine=False, track_running_stats=True)
        (9): BatchNorm2d(497, eps=1e-05, momentum=0.1, affine=False, track_running_stats=True)
        (10): BatchNorm2d(537, eps=1e-05, momentum=0.1, affine=False, track_running_stats=True)
        (11): BatchNorm2d(577, eps=1e-05, momentum=0.1, affine=False, track_running_stats=True)
        (12): BatchNorm2d(618, eps=1e-05, momentum=0.1, affine=False, track_running_stats=True)
        (13): BatchNorm2d(658, eps=1e-05, momentum=0.1, affine=False, track_running_stats=True)
        (14): BatchNorm2d(698, eps=1e-05, momentum=0.1, affine=False, track_running_stats=True)
        (15): BatchNorm2d(739, eps=1e-05, momentum=0.1, affine=False, track_running_stats=True)
        (16): BatchNorm2d(779, eps=1e-05, momentum=0.1, affine=False, track_running_stats=True)
        (17): BatchNorm2d(819, eps=1e-05, momentum=0.1, affine=False, track_running_stats=True)
        (18): BatchNorm2d(860, eps=1e-05, momentum=0.1, affine=False, track_running_stats=True)
        (19): BatchNorm2d(900, eps=1e-05, momentum=0.1, affine=False, track_running_stats=True)
        (20): BatchNorm2d(940, eps=1e-05, momentum=0.1, affine=False, track_running_stats=True)
        (21): BatchNorm2d(981, eps=1e-05, momentum=0.1, affine=False, track_running_stats=True)
        (22): BatchNorm2d(1021, eps=1e-05, momentum=0.1, affine=False, track_running_stats=True)
        (23): BatchNorm2d(1061, eps=1e-05, momentum=0.1, affine=False, track_running_stats=True)
        (24): BatchNorm2d(1102, eps=1e-05, momentum=0.1, affine=False, track_running_stats=True)
        (25): BatchNorm2d(1142, eps=1e-05, momentum=0.1, affine=False, track_running_stats=True)
        (26): BatchNorm2d(1182, eps=1e-05, momentum=0.1, affine=False, track_running_stats=True)
        (27): BatchNorm2d(1223, eps=1e-05, momentum=0.1, affine=False, track_running_stats=True)
        (28): BatchNorm2d(1263, eps=1e-05, momentum=0.1, affine=False, track_running_stats=True)
        (29): BatchNorm2d(1303, eps=1e-05, momentum=0.1, affine=False, track_running_stats=True)
        (30): BatchNorm2d(1344, eps=1e-05, momentum=0.1, affine=False, track_running_stats=True)
      )
      (bn2): ModuleList(
        (0): BatchNorm2d(134, eps=1e-05, momentum=0.1, affine=False, track_running_stats=True)
        (1): BatchNorm2d(174, eps=1e-05, momentum=0.1, affine=False, track_running_stats=True)
        (2): BatchNorm2d(215, eps=1e-05, momentum=0.1, affine=False, track_running_stats=True)
        (3): BatchNorm2d(255, eps=1e-05, momentum=0.1, affine=False, track_running_stats=True)
        (4): BatchNorm2d(295, eps=1e-05, momentum=0.1, affine=False, track_running_stats=True)
        (5): BatchNorm2d(336, eps=1e-05, momentum=0.1, affine=False, track_running_stats=True)
        (6): BatchNorm2d(376, eps=1e-05, momentum=0.1, affine=False, track_running_stats=True)
        (7): BatchNorm2d(416, eps=1e-05, momentum=0.1, affine=False, track_running_stats=True)
        (8): BatchNorm2d(456, eps=1e-05, momentum=0.1, affine=False, track_running_stats=True)
        (9): BatchNorm2d(497, eps=1e-05, momentum=0.1, affine=False, track_running_stats=True)
        (10): BatchNorm2d(537, eps=1e-05, momentum=0.1, affine=False, track_running_stats=True)
        (11): BatchNorm2d(577, eps=1e-05, momentum=0.1, affine=False, track_running_stats=True)
        (12): BatchNorm2d(618, eps=1e-05, momentum=0.1, affine=False, track_running_stats=True)
        (13): BatchNorm2d(658, eps=1e-05, momentum=0.1, affine=False, track_running_stats=True)
        (14): BatchNorm2d(698, eps=1e-05, momentum=0.1, affine=False, track_running_stats=True)
        (15): BatchNorm2d(739, eps=1e-05, momentum=0.1, affine=False, track_running_stats=True)
        (16): BatchNorm2d(779, eps=1e-05, momentum=0.1, affine=False, track_running_stats=True)
        (17): BatchNorm2d(819, eps=1e-05, momentum=0.1, affine=False, track_running_stats=True)
        (18): BatchNorm2d(860, eps=1e-05, momentum=0.1, affine=False, track_running_stats=True)
        (19): BatchNorm2d(900, eps=1e-05, momentum=0.1, affine=False, track_running_stats=True)
        (20): BatchNorm2d(940, eps=1e-05, momentum=0.1, affine=False, track_running_stats=True)
        (21): BatchNorm2d(981, eps=1e-05, momentum=0.1, affine=False, track_running_stats=True)
        (22): BatchNorm2d(1021, eps=1e-05, momentum=0.1, affine=False, track_running_stats=True)
        (23): BatchNorm2d(1061, eps=1e-05, momentum=0.1, affine=False, track_running_stats=True)
        (24): BatchNorm2d(1102, eps=1e-05, momentum=0.1, affine=False, track_running_stats=True)
        (25): BatchNorm2d(1142, eps=1e-05, momentum=0.1, affine=False, track_running_stats=True)
        (26): BatchNorm2d(1182, eps=1e-05, momentum=0.1, affine=False, track_running_stats=True)
        (27): BatchNorm2d(1223, eps=1e-05, momentum=0.1, affine=False, track_running_stats=True)
        (28): BatchNorm2d(1263, eps=1e-05, momentum=0.1, affine=False, track_running_stats=True)
        (29): BatchNorm2d(1303, eps=1e-05, momentum=0.1, affine=False, track_running_stats=True)
        (30): BatchNorm2d(1344, eps=1e-05, momentum=0.1, affine=False, track_running_stats=True)
      )
      (bn3): ModuleList(
        (0): BatchNorm2d(22, eps=1e-05, momentum=0.1, affine=False, track_running_stats=True)
        (1): BatchNorm2d(29, eps=1e-05, momentum=0.1, affine=False, track_running_stats=True)
        (2): BatchNorm2d(35, eps=1e-05, momentum=0.1, affine=False, track_running_stats=True)
        (3): BatchNorm2d(42, eps=1e-05, momentum=0.1, affine=False, track_running_stats=True)
        (4): BatchNorm2d(49, eps=1e-05, momentum=0.1, affine=False, track_running_stats=True)
        (5): BatchNorm2d(56, eps=1e-05, momentum=0.1, affine=False, track_running_stats=True)
        (6): BatchNorm2d(62, eps=1e-05, momentum=0.1, affine=False, track_running_stats=True)
        (7): BatchNorm2d(69, eps=1e-05, momentum=0.1, affine=False, track_running_stats=True)
        (8): BatchNorm2d(76, eps=1e-05, momentum=0.1, affine=False, track_running_stats=True)
        (9): BatchNorm2d(82, eps=1e-05, momentum=0.1, affine=False, track_running_stats=True)
        (10): BatchNorm2d(89, eps=1e-05, momentum=0.1, affine=False, track_running_stats=True)
        (11): BatchNorm2d(96, eps=1e-05, momentum=0.1, affine=False, track_running_stats=True)
        (12): BatchNorm2d(103, eps=1e-05, momentum=0.1, affine=False, track_running_stats=True)
        (13): BatchNorm2d(109, eps=1e-05, momentum=0.1, affine=False, track_running_stats=True)
        (14): BatchNorm2d(116, eps=1e-05, momentum=0.1, affine=False, track_running_stats=True)
        (15): BatchNorm2d(123, eps=1e-05, momentum=0.1, affine=False, track_running_stats=True)
        (16): BatchNorm2d(129, eps=1e-05, momentum=0.1, affine=False, track_running_stats=True)
        (17): BatchNorm2d(136, eps=1e-05, momentum=0.1, affine=False, track_running_stats=True)
        (18): BatchNorm2d(143, eps=1e-05, momentum=0.1, affine=False, track_running_stats=True)
        (19): BatchNorm2d(150, eps=1e-05, momentum=0.1, affine=False, track_running_stats=True)
        (20): BatchNorm2d(156, eps=1e-05, momentum=0.1, affine=False, track_running_stats=True)
        (21): BatchNorm2d(163, eps=1e-05, momentum=0.1, affine=False, track_running_stats=True)
        (22): BatchNorm2d(170, eps=1e-05, momentum=0.1, affine=False, track_running_stats=True)
        (23): BatchNorm2d(176, eps=1e-05, momentum=0.1, affine=False, track_running_stats=True)
        (24): BatchNorm2d(183, eps=1e-05, momentum=0.1, affine=False, track_running_stats=True)
        (25): BatchNorm2d(190, eps=1e-05, momentum=0.1, affine=False, track_running_stats=True)
        (26): BatchNorm2d(197, eps=1e-05, momentum=0.1, affine=False, track_running_stats=True)
        (27): BatchNorm2d(203, eps=1e-05, momentum=0.1, affine=False, track_running_stats=True)
        (28): BatchNorm2d(210, eps=1e-05, momentum=0.1, affine=False, track_running_stats=True)
        (29): BatchNorm2d(217, eps=1e-05, momentum=0.1, affine=False, track_running_stats=True)
        (30): BatchNorm2d(224, eps=1e-05, momentum=0.1, affine=False, track_running_stats=True)
      )
    )
    (16): bottleneck(
      (fc11): Linear(in_features=3, out_features=64, bias=True)
      (fc12): Linear(in_features=64, out_features=301056, bias=True)
      (fc21): Linear(in_features=3, out_features=64, bias=True)
      (fc22): Linear(in_features=64, out_features=12096, bias=True)
      (fc31): Linear(in_features=3, out_features=64, bias=True)
      (fc32): Linear(in_features=64, out_features=301056, bias=True)
      (bn1): ModuleList(
        (0): BatchNorm2d(134, eps=1e-05, momentum=0.1, affine=False, track_running_stats=True)
        (1): BatchNorm2d(174, eps=1e-05, momentum=0.1, affine=False, track_running_stats=True)
        (2): BatchNorm2d(215, eps=1e-05, momentum=0.1, affine=False, track_running_stats=True)
        (3): BatchNorm2d(255, eps=1e-05, momentum=0.1, affine=False, track_running_stats=True)
        (4): BatchNorm2d(295, eps=1e-05, momentum=0.1, affine=False, track_running_stats=True)
        (5): BatchNorm2d(336, eps=1e-05, momentum=0.1, affine=False, track_running_stats=True)
        (6): BatchNorm2d(376, eps=1e-05, momentum=0.1, affine=False, track_running_stats=True)
        (7): BatchNorm2d(416, eps=1e-05, momentum=0.1, affine=False, track_running_stats=True)
        (8): BatchNorm2d(456, eps=1e-05, momentum=0.1, affine=False, track_running_stats=True)
        (9): BatchNorm2d(497, eps=1e-05, momentum=0.1, affine=False, track_running_stats=True)
        (10): BatchNorm2d(537, eps=1e-05, momentum=0.1, affine=False, track_running_stats=True)
        (11): BatchNorm2d(577, eps=1e-05, momentum=0.1, affine=False, track_running_stats=True)
        (12): BatchNorm2d(618, eps=1e-05, momentum=0.1, affine=False, track_running_stats=True)
        (13): BatchNorm2d(658, eps=1e-05, momentum=0.1, affine=False, track_running_stats=True)
        (14): BatchNorm2d(698, eps=1e-05, momentum=0.1, affine=False, track_running_stats=True)
        (15): BatchNorm2d(739, eps=1e-05, momentum=0.1, affine=False, track_running_stats=True)
        (16): BatchNorm2d(779, eps=1e-05, momentum=0.1, affine=False, track_running_stats=True)
        (17): BatchNorm2d(819, eps=1e-05, momentum=0.1, affine=False, track_running_stats=True)
        (18): BatchNorm2d(860, eps=1e-05, momentum=0.1, affine=False, track_running_stats=True)
        (19): BatchNorm2d(900, eps=1e-05, momentum=0.1, affine=False, track_running_stats=True)
        (20): BatchNorm2d(940, eps=1e-05, momentum=0.1, affine=False, track_running_stats=True)
        (21): BatchNorm2d(981, eps=1e-05, momentum=0.1, affine=False, track_running_stats=True)
        (22): BatchNorm2d(1021, eps=1e-05, momentum=0.1, affine=False, track_running_stats=True)
        (23): BatchNorm2d(1061, eps=1e-05, momentum=0.1, affine=False, track_running_stats=True)
        (24): BatchNorm2d(1102, eps=1e-05, momentum=0.1, affine=False, track_running_stats=True)
        (25): BatchNorm2d(1142, eps=1e-05, momentum=0.1, affine=False, track_running_stats=True)
        (26): BatchNorm2d(1182, eps=1e-05, momentum=0.1, affine=False, track_running_stats=True)
        (27): BatchNorm2d(1223, eps=1e-05, momentum=0.1, affine=False, track_running_stats=True)
        (28): BatchNorm2d(1263, eps=1e-05, momentum=0.1, affine=False, track_running_stats=True)
        (29): BatchNorm2d(1303, eps=1e-05, momentum=0.1, affine=False, track_running_stats=True)
        (30): BatchNorm2d(1344, eps=1e-05, momentum=0.1, affine=False, track_running_stats=True)
      )
      (bn2): ModuleList(
        (0): BatchNorm2d(134, eps=1e-05, momentum=0.1, affine=False, track_running_stats=True)
        (1): BatchNorm2d(174, eps=1e-05, momentum=0.1, affine=False, track_running_stats=True)
        (2): BatchNorm2d(215, eps=1e-05, momentum=0.1, affine=False, track_running_stats=True)
        (3): BatchNorm2d(255, eps=1e-05, momentum=0.1, affine=False, track_running_stats=True)
        (4): BatchNorm2d(295, eps=1e-05, momentum=0.1, affine=False, track_running_stats=True)
        (5): BatchNorm2d(336, eps=1e-05, momentum=0.1, affine=False, track_running_stats=True)
        (6): BatchNorm2d(376, eps=1e-05, momentum=0.1, affine=False, track_running_stats=True)
        (7): BatchNorm2d(416, eps=1e-05, momentum=0.1, affine=False, track_running_stats=True)
        (8): BatchNorm2d(456, eps=1e-05, momentum=0.1, affine=False, track_running_stats=True)
        (9): BatchNorm2d(497, eps=1e-05, momentum=0.1, affine=False, track_running_stats=True)
        (10): BatchNorm2d(537, eps=1e-05, momentum=0.1, affine=False, track_running_stats=True)
        (11): BatchNorm2d(577, eps=1e-05, momentum=0.1, affine=False, track_running_stats=True)
        (12): BatchNorm2d(618, eps=1e-05, momentum=0.1, affine=False, track_running_stats=True)
        (13): BatchNorm2d(658, eps=1e-05, momentum=0.1, affine=False, track_running_stats=True)
        (14): BatchNorm2d(698, eps=1e-05, momentum=0.1, affine=False, track_running_stats=True)
        (15): BatchNorm2d(739, eps=1e-05, momentum=0.1, affine=False, track_running_stats=True)
        (16): BatchNorm2d(779, eps=1e-05, momentum=0.1, affine=False, track_running_stats=True)
        (17): BatchNorm2d(819, eps=1e-05, momentum=0.1, affine=False, track_running_stats=True)
        (18): BatchNorm2d(860, eps=1e-05, momentum=0.1, affine=False, track_running_stats=True)
        (19): BatchNorm2d(900, eps=1e-05, momentum=0.1, affine=False, track_running_stats=True)
        (20): BatchNorm2d(940, eps=1e-05, momentum=0.1, affine=False, track_running_stats=True)
        (21): BatchNorm2d(981, eps=1e-05, momentum=0.1, affine=False, track_running_stats=True)
        (22): BatchNorm2d(1021, eps=1e-05, momentum=0.1, affine=False, track_running_stats=True)
        (23): BatchNorm2d(1061, eps=1e-05, momentum=0.1, affine=False, track_running_stats=True)
        (24): BatchNorm2d(1102, eps=1e-05, momentum=0.1, affine=False, track_running_stats=True)
        (25): BatchNorm2d(1142, eps=1e-05, momentum=0.1, affine=False, track_running_stats=True)
        (26): BatchNorm2d(1182, eps=1e-05, momentum=0.1, affine=False, track_running_stats=True)
        (27): BatchNorm2d(1223, eps=1e-05, momentum=0.1, affine=False, track_running_stats=True)
        (28): BatchNorm2d(1263, eps=1e-05, momentum=0.1, affine=False, track_running_stats=True)
        (29): BatchNorm2d(1303, eps=1e-05, momentum=0.1, affine=False, track_running_stats=True)
        (30): BatchNorm2d(1344, eps=1e-05, momentum=0.1, affine=False, track_running_stats=True)
      )
      (bn3): ModuleList(
        (0): BatchNorm2d(22, eps=1e-05, momentum=0.1, affine=False, track_running_stats=True)
        (1): BatchNorm2d(29, eps=1e-05, momentum=0.1, affine=False, track_running_stats=True)
        (2): BatchNorm2d(35, eps=1e-05, momentum=0.1, affine=False, track_running_stats=True)
        (3): BatchNorm2d(42, eps=1e-05, momentum=0.1, affine=False, track_running_stats=True)
        (4): BatchNorm2d(49, eps=1e-05, momentum=0.1, affine=False, track_running_stats=True)
        (5): BatchNorm2d(56, eps=1e-05, momentum=0.1, affine=False, track_running_stats=True)
        (6): BatchNorm2d(62, eps=1e-05, momentum=0.1, affine=False, track_running_stats=True)
        (7): BatchNorm2d(69, eps=1e-05, momentum=0.1, affine=False, track_running_stats=True)
        (8): BatchNorm2d(76, eps=1e-05, momentum=0.1, affine=False, track_running_stats=True)
        (9): BatchNorm2d(82, eps=1e-05, momentum=0.1, affine=False, track_running_stats=True)
        (10): BatchNorm2d(89, eps=1e-05, momentum=0.1, affine=False, track_running_stats=True)
        (11): BatchNorm2d(96, eps=1e-05, momentum=0.1, affine=False, track_running_stats=True)
        (12): BatchNorm2d(103, eps=1e-05, momentum=0.1, affine=False, track_running_stats=True)
        (13): BatchNorm2d(109, eps=1e-05, momentum=0.1, affine=False, track_running_stats=True)
        (14): BatchNorm2d(116, eps=1e-05, momentum=0.1, affine=False, track_running_stats=True)
        (15): BatchNorm2d(123, eps=1e-05, momentum=0.1, affine=False, track_running_stats=True)
        (16): BatchNorm2d(129, eps=1e-05, momentum=0.1, affine=False, track_running_stats=True)
        (17): BatchNorm2d(136, eps=1e-05, momentum=0.1, affine=False, track_running_stats=True)
        (18): BatchNorm2d(143, eps=1e-05, momentum=0.1, affine=False, track_running_stats=True)
        (19): BatchNorm2d(150, eps=1e-05, momentum=0.1, affine=False, track_running_stats=True)
        (20): BatchNorm2d(156, eps=1e-05, momentum=0.1, affine=False, track_running_stats=True)
        (21): BatchNorm2d(163, eps=1e-05, momentum=0.1, affine=False, track_running_stats=True)
        (22): BatchNorm2d(170, eps=1e-05, momentum=0.1, affine=False, track_running_stats=True)
        (23): BatchNorm2d(176, eps=1e-05, momentum=0.1, affine=False, track_running_stats=True)
        (24): BatchNorm2d(183, eps=1e-05, momentum=0.1, affine=False, track_running_stats=True)
        (25): BatchNorm2d(190, eps=1e-05, momentum=0.1, affine=False, track_running_stats=True)
        (26): BatchNorm2d(197, eps=1e-05, momentum=0.1, affine=False, track_running_stats=True)
        (27): BatchNorm2d(203, eps=1e-05, momentum=0.1, affine=False, track_running_stats=True)
        (28): BatchNorm2d(210, eps=1e-05, momentum=0.1, affine=False, track_running_stats=True)
        (29): BatchNorm2d(217, eps=1e-05, momentum=0.1, affine=False, track_running_stats=True)
        (30): BatchNorm2d(224, eps=1e-05, momentum=0.1, affine=False, track_running_stats=True)
      )
    )
    (17): bottleneck(
      (fc11): Linear(in_features=3, out_features=64, bias=True)
      (fc12): Linear(in_features=64, out_features=301056, bias=True)
      (fc21): Linear(in_features=3, out_features=64, bias=True)
      (fc22): Linear(in_features=64, out_features=12096, bias=True)
      (fc31): Linear(in_features=3, out_features=64, bias=True)
      (fc32): Linear(in_features=64, out_features=602112, bias=True)
      (bn1): ModuleList(
        (0): BatchNorm2d(134, eps=1e-05, momentum=0.1, affine=False, track_running_stats=True)
        (1): BatchNorm2d(174, eps=1e-05, momentum=0.1, affine=False, track_running_stats=True)
        (2): BatchNorm2d(215, eps=1e-05, momentum=0.1, affine=False, track_running_stats=True)
        (3): BatchNorm2d(255, eps=1e-05, momentum=0.1, affine=False, track_running_stats=True)
        (4): BatchNorm2d(295, eps=1e-05, momentum=0.1, affine=False, track_running_stats=True)
        (5): BatchNorm2d(336, eps=1e-05, momentum=0.1, affine=False, track_running_stats=True)
        (6): BatchNorm2d(376, eps=1e-05, momentum=0.1, affine=False, track_running_stats=True)
        (7): BatchNorm2d(416, eps=1e-05, momentum=0.1, affine=False, track_running_stats=True)
        (8): BatchNorm2d(456, eps=1e-05, momentum=0.1, affine=False, track_running_stats=True)
        (9): BatchNorm2d(497, eps=1e-05, momentum=0.1, affine=False, track_running_stats=True)
        (10): BatchNorm2d(537, eps=1e-05, momentum=0.1, affine=False, track_running_stats=True)
        (11): BatchNorm2d(577, eps=1e-05, momentum=0.1, affine=False, track_running_stats=True)
        (12): BatchNorm2d(618, eps=1e-05, momentum=0.1, affine=False, track_running_stats=True)
        (13): BatchNorm2d(658, eps=1e-05, momentum=0.1, affine=False, track_running_stats=True)
        (14): BatchNorm2d(698, eps=1e-05, momentum=0.1, affine=False, track_running_stats=True)
        (15): BatchNorm2d(739, eps=1e-05, momentum=0.1, affine=False, track_running_stats=True)
        (16): BatchNorm2d(779, eps=1e-05, momentum=0.1, affine=False, track_running_stats=True)
        (17): BatchNorm2d(819, eps=1e-05, momentum=0.1, affine=False, track_running_stats=True)
        (18): BatchNorm2d(860, eps=1e-05, momentum=0.1, affine=False, track_running_stats=True)
        (19): BatchNorm2d(900, eps=1e-05, momentum=0.1, affine=False, track_running_stats=True)
        (20): BatchNorm2d(940, eps=1e-05, momentum=0.1, affine=False, track_running_stats=True)
        (21): BatchNorm2d(981, eps=1e-05, momentum=0.1, affine=False, track_running_stats=True)
        (22): BatchNorm2d(1021, eps=1e-05, momentum=0.1, affine=False, track_running_stats=True)
        (23): BatchNorm2d(1061, eps=1e-05, momentum=0.1, affine=False, track_running_stats=True)
        (24): BatchNorm2d(1102, eps=1e-05, momentum=0.1, affine=False, track_running_stats=True)
        (25): BatchNorm2d(1142, eps=1e-05, momentum=0.1, affine=False, track_running_stats=True)
        (26): BatchNorm2d(1182, eps=1e-05, momentum=0.1, affine=False, track_running_stats=True)
        (27): BatchNorm2d(1223, eps=1e-05, momentum=0.1, affine=False, track_running_stats=True)
        (28): BatchNorm2d(1263, eps=1e-05, momentum=0.1, affine=False, track_running_stats=True)
        (29): BatchNorm2d(1303, eps=1e-05, momentum=0.1, affine=False, track_running_stats=True)
        (30): BatchNorm2d(1344, eps=1e-05, momentum=0.1, affine=False, track_running_stats=True)
      )
      (bn2): ModuleList(
        (0): BatchNorm2d(134, eps=1e-05, momentum=0.1, affine=False, track_running_stats=True)
        (1): BatchNorm2d(174, eps=1e-05, momentum=0.1, affine=False, track_running_stats=True)
        (2): BatchNorm2d(215, eps=1e-05, momentum=0.1, affine=False, track_running_stats=True)
        (3): BatchNorm2d(255, eps=1e-05, momentum=0.1, affine=False, track_running_stats=True)
        (4): BatchNorm2d(295, eps=1e-05, momentum=0.1, affine=False, track_running_stats=True)
        (5): BatchNorm2d(336, eps=1e-05, momentum=0.1, affine=False, track_running_stats=True)
        (6): BatchNorm2d(376, eps=1e-05, momentum=0.1, affine=False, track_running_stats=True)
        (7): BatchNorm2d(416, eps=1e-05, momentum=0.1, affine=False, track_running_stats=True)
        (8): BatchNorm2d(456, eps=1e-05, momentum=0.1, affine=False, track_running_stats=True)
        (9): BatchNorm2d(497, eps=1e-05, momentum=0.1, affine=False, track_running_stats=True)
        (10): BatchNorm2d(537, eps=1e-05, momentum=0.1, affine=False, track_running_stats=True)
        (11): BatchNorm2d(577, eps=1e-05, momentum=0.1, affine=False, track_running_stats=True)
        (12): BatchNorm2d(618, eps=1e-05, momentum=0.1, affine=False, track_running_stats=True)
        (13): BatchNorm2d(658, eps=1e-05, momentum=0.1, affine=False, track_running_stats=True)
        (14): BatchNorm2d(698, eps=1e-05, momentum=0.1, affine=False, track_running_stats=True)
        (15): BatchNorm2d(739, eps=1e-05, momentum=0.1, affine=False, track_running_stats=True)
        (16): BatchNorm2d(779, eps=1e-05, momentum=0.1, affine=False, track_running_stats=True)
        (17): BatchNorm2d(819, eps=1e-05, momentum=0.1, affine=False, track_running_stats=True)
        (18): BatchNorm2d(860, eps=1e-05, momentum=0.1, affine=False, track_running_stats=True)
        (19): BatchNorm2d(900, eps=1e-05, momentum=0.1, affine=False, track_running_stats=True)
        (20): BatchNorm2d(940, eps=1e-05, momentum=0.1, affine=False, track_running_stats=True)
        (21): BatchNorm2d(981, eps=1e-05, momentum=0.1, affine=False, track_running_stats=True)
        (22): BatchNorm2d(1021, eps=1e-05, momentum=0.1, affine=False, track_running_stats=True)
        (23): BatchNorm2d(1061, eps=1e-05, momentum=0.1, affine=False, track_running_stats=True)
        (24): BatchNorm2d(1102, eps=1e-05, momentum=0.1, affine=False, track_running_stats=True)
        (25): BatchNorm2d(1142, eps=1e-05, momentum=0.1, affine=False, track_running_stats=True)
        (26): BatchNorm2d(1182, eps=1e-05, momentum=0.1, affine=False, track_running_stats=True)
        (27): BatchNorm2d(1223, eps=1e-05, momentum=0.1, affine=False, track_running_stats=True)
        (28): BatchNorm2d(1263, eps=1e-05, momentum=0.1, affine=False, track_running_stats=True)
        (29): BatchNorm2d(1303, eps=1e-05, momentum=0.1, affine=False, track_running_stats=True)
        (30): BatchNorm2d(1344, eps=1e-05, momentum=0.1, affine=False, track_running_stats=True)
      )
      (bn3): ModuleList(
        (0): BatchNorm2d(44, eps=1e-05, momentum=0.1, affine=False, track_running_stats=True)
        (1): BatchNorm2d(58, eps=1e-05, momentum=0.1, affine=False, track_running_stats=True)
        (2): BatchNorm2d(71, eps=1e-05, momentum=0.1, affine=False, track_running_stats=True)
        (3): BatchNorm2d(85, eps=1e-05, momentum=0.1, affine=False, track_running_stats=True)
        (4): BatchNorm2d(98, eps=1e-05, momentum=0.1, affine=False, track_running_stats=True)
        (5): BatchNorm2d(112, eps=1e-05, momentum=0.1, affine=False, track_running_stats=True)
        (6): BatchNorm2d(125, eps=1e-05, momentum=0.1, affine=False, track_running_stats=True)
        (7): BatchNorm2d(138, eps=1e-05, momentum=0.1, affine=False, track_running_stats=True)
        (8): BatchNorm2d(152, eps=1e-05, momentum=0.1, affine=False, track_running_stats=True)
        (9): BatchNorm2d(165, eps=1e-05, momentum=0.1, affine=False, track_running_stats=True)
        (10): BatchNorm2d(179, eps=1e-05, momentum=0.1, affine=False, track_running_stats=True)
        (11): BatchNorm2d(192, eps=1e-05, momentum=0.1, affine=False, track_running_stats=True)
        (12): BatchNorm2d(206, eps=1e-05, momentum=0.1, affine=False, track_running_stats=True)
        (13): BatchNorm2d(219, eps=1e-05, momentum=0.1, affine=False, track_running_stats=True)
        (14): BatchNorm2d(232, eps=1e-05, momentum=0.1, affine=False, track_running_stats=True)
        (15): BatchNorm2d(246, eps=1e-05, momentum=0.1, affine=False, track_running_stats=True)
        (16): BatchNorm2d(259, eps=1e-05, momentum=0.1, affine=False, track_running_stats=True)
        (17): BatchNorm2d(273, eps=1e-05, momentum=0.1, affine=False, track_running_stats=True)
        (18): BatchNorm2d(286, eps=1e-05, momentum=0.1, affine=False, track_running_stats=True)
        (19): BatchNorm2d(300, eps=1e-05, momentum=0.1, affine=False, track_running_stats=True)
        (20): BatchNorm2d(313, eps=1e-05, momentum=0.1, affine=False, track_running_stats=True)
        (21): BatchNorm2d(327, eps=1e-05, momentum=0.1, affine=False, track_running_stats=True)
        (22): BatchNorm2d(340, eps=1e-05, momentum=0.1, affine=False, track_running_stats=True)
        (23): BatchNorm2d(353, eps=1e-05, momentum=0.1, affine=False, track_running_stats=True)
        (24): BatchNorm2d(367, eps=1e-05, momentum=0.1, affine=False, track_running_stats=True)
        (25): BatchNorm2d(380, eps=1e-05, momentum=0.1, affine=False, track_running_stats=True)
        (26): BatchNorm2d(394, eps=1e-05, momentum=0.1, affine=False, track_running_stats=True)
        (27): BatchNorm2d(407, eps=1e-05, momentum=0.1, affine=False, track_running_stats=True)
        (28): BatchNorm2d(421, eps=1e-05, momentum=0.1, affine=False, track_running_stats=True)
        (29): BatchNorm2d(434, eps=1e-05, momentum=0.1, affine=False, track_running_stats=True)
        (30): BatchNorm2d(448, eps=1e-05, momentum=0.1, affine=False, track_running_stats=True)
      )
    )
    (18): conv2d_1x1(
      (fc11): Linear(in_features=1, out_features=32, bias=True)
      (fc12): Linear(in_features=32, out_features=573440, bias=True)
      (first_bn): ModuleList(
        (0): BatchNorm2d(1280, eps=1e-05, momentum=0.1, affine=False, track_running_stats=True)
        (1): BatchNorm2d(1280, eps=1e-05, momentum=0.1, affine=False, track_running_stats=True)
        (2): BatchNorm2d(1280, eps=1e-05, momentum=0.1, affine=False, track_running_stats=True)
        (3): BatchNorm2d(1280, eps=1e-05, momentum=0.1, affine=False, track_running_stats=True)
        (4): BatchNorm2d(1280, eps=1e-05, momentum=0.1, affine=False, track_running_stats=True)
        (5): BatchNorm2d(1280, eps=1e-05, momentum=0.1, affine=False, track_running_stats=True)
        (6): BatchNorm2d(1280, eps=1e-05, momentum=0.1, affine=False, track_running_stats=True)
        (7): BatchNorm2d(1280, eps=1e-05, momentum=0.1, affine=False, track_running_stats=True)
        (8): BatchNorm2d(1280, eps=1e-05, momentum=0.1, affine=False, track_running_stats=True)
        (9): BatchNorm2d(1280, eps=1e-05, momentum=0.1, affine=False, track_running_stats=True)
        (10): BatchNorm2d(1280, eps=1e-05, momentum=0.1, affine=False, track_running_stats=True)
        (11): BatchNorm2d(1280, eps=1e-05, momentum=0.1, affine=False, track_running_stats=True)
        (12): BatchNorm2d(1280, eps=1e-05, momentum=0.1, affine=False, track_running_stats=True)
        (13): BatchNorm2d(1280, eps=1e-05, momentum=0.1, affine=False, track_running_stats=True)
        (14): BatchNorm2d(1280, eps=1e-05, momentum=0.1, affine=False, track_running_stats=True)
        (15): BatchNorm2d(1280, eps=1e-05, momentum=0.1, affine=False, track_running_stats=True)
        (16): BatchNorm2d(1280, eps=1e-05, momentum=0.1, affine=False, track_running_stats=True)
        (17): BatchNorm2d(1280, eps=1e-05, momentum=0.1, affine=False, track_running_stats=True)
        (18): BatchNorm2d(1280, eps=1e-05, momentum=0.1, affine=False, track_running_stats=True)
        (19): BatchNorm2d(1280, eps=1e-05, momentum=0.1, affine=False, track_running_stats=True)
        (20): BatchNorm2d(1280, eps=1e-05, momentum=0.1, affine=False, track_running_stats=True)
        (21): BatchNorm2d(1280, eps=1e-05, momentum=0.1, affine=False, track_running_stats=True)
        (22): BatchNorm2d(1280, eps=1e-05, momentum=0.1, affine=False, track_running_stats=True)
        (23): BatchNorm2d(1280, eps=1e-05, momentum=0.1, affine=False, track_running_stats=True)
        (24): BatchNorm2d(1280, eps=1e-05, momentum=0.1, affine=False, track_running_stats=True)
        (25): BatchNorm2d(1280, eps=1e-05, momentum=0.1, affine=False, track_running_stats=True)
        (26): BatchNorm2d(1280, eps=1e-05, momentum=0.1, affine=False, track_running_stats=True)
        (27): BatchNorm2d(1280, eps=1e-05, momentum=0.1, affine=False, track_running_stats=True)
        (28): BatchNorm2d(1280, eps=1e-05, momentum=0.1, affine=False, track_running_stats=True)
        (29): BatchNorm2d(1280, eps=1e-05, momentum=0.1, affine=False, track_running_stats=True)
        (30): BatchNorm2d(1280, eps=1e-05, momentum=0.1, affine=False, track_running_stats=True)
      )
    )
  )
  (pool1): AvgPool2d(kernel_size=7, stride=7, padding=0)
  (fc): Linear(in_features=1280, out_features=1000, bias=True)
)
